best_model.pth (torch, 252277 bytes, 31 tensors)

encoder.0.weight f4 [256, 16]
-0.11916957 0.015281841 -0.160692 0.23688689 0.08043381 -0.013455831 0.16487113 -0.105303116
0.13441458 -0.20775552 -0.050002467 -0.12180578 -0.11324315 0.2355052 0.20814994 0.09507813
0.013258299 -0.22791158 0.048532452 0.040969897 -0.24462305 0.07674481 -0.1686462 -0.15546732
-0.11262972 -0.0112540955 0.18085918 0.14787893 0.004559165 -0.13392021 -0.09088517 -0.23224874
0.1716163 0.1933217 0.12165308 0.11952209 0.104539566 0.13931373 0.14566661 -0.1477388
-0.08597447 0.2049298 0.09215084 -0.06877915 -0.01513988 0.14409123 0.24977554 0.10377232
-0.19251123 -0.25494435 -0.16274002 0.011740188 -0.0861484 0.17543821 0.0060293423 0.23073833
-0.1534168 -0.015033252 -0.10777413 0.07195063 0.08309941 -0.19198893 0.13094905 0.2094655
0.18765357 0.17134693 0.1344786 -0.21272798 -0.16119237 -0.027527798 0.19768177 0.24329941
0.12060352 0.22575606 -0.14764446 -0.23077215 0.100974515 0.23277353 0.11870554 -0.19532183
-0.18054219 0.15601502 -0.050334495 -0.057855405 0.032990802 0.054655086 0.2292896 -0.1234647
0.2533373 -0.03714655 -0.13395283 0.00075227715 -0.13745026 0.0076010455 0.206778 -0.22831011
-0.019560298 0.08360668 -0.017367037 -0.13756081 0.13090807 0.02154909 0.03266006 0.07453348
0.086251654 0.10339951 0.08406948 -0.20022237 -0.15781207 -0.20348337 0.008905038 -0.017772501
-0.13502197 -0.23946509 0.13634543 0.06742273 0.1364788 -0.25289735 -0.09696657 -0.06362548
-0.081786126 -0.0998355 0.0047302614 -0.016794562 -0.23787647 0.2445205 -0.1671414 -0.019013124
-0.0982914 0.08124223 -0.04293483 0.17388834 -0.048974987 0.0767312 0.1645314 0.0029668312
-0.014020529 0.005309732 -0.15077543 -0.20253439 -0.14843543 -0.13436814 0.18905085 -0.03725381
0.1383646 -0.11778665 0.27411202 0.17357485 0.061741687 0.21819767 -0.23334792 0.14017576
0.22731696 -0.14499444 -0.15275677 0.05730248 0.11428091 -0.08219341 0.16314998 0.09610922
-0.19919218 0.2524331 0.22400872 0.21878731 -0.21926804 -0.04802179 0.13181897 0.24697797
-0.19581833 0.21897398 -0.06544792 -0.12506193 -0.118436754 0.13508989 -0.1518748 0.13976464
-0.0060521634 -0.049430806 -0.08077428 0.063621 0.0004691439 0.27027 0.20272532 -0.23400757
0.061286494 -0.18352509 -0.13986595 0.14005062 0.20589116 0.13031617 -0.13434318 -0.19528607
0.09803175 0.088534705 0.091437414 -0.04721399 -0.122839786 0.11225246 -0.10903254 -0.017461717
-0.0509006 -0.11780688 0.13240173 -0.10455019 0.04254676 0.13595445 -0.010661649 -0.07811199
-0.17403907 -0.010814118 -0.06436829 -0.19810076 0.042556603 -0.18339954 0.035838567 0.03539303
0.1251023 0.015456438 -0.0581169 -0.052244596 -0.24866366 -0.13740034 -0.119862065 0.036574587
-0.21261664 -0.15479533 0.08982642 0.03594494 0.09333562 0.21135668 0.03019593 0.1399739
-0.14594537 -0.1750201 0.027769392 -0.19014457 -0.14390461 -0.13271216 -0.1711352 0.21158454
0.106896505 -0.30506048 0.15992613 -0.15659235 -0.020334402 0.048833534 -0.02956638 -0.108022
0.004736321 -0.2925485 -0.01855035 0.07313445 -0.11357994 -0.21515746 0.1299047 0.09709962
00000000: 2d0f f4bd b060 7a3c 728c 24be 7a92 723e
00000010: 7bba a43d d975 5cbc fad3 283e 29a9 d7bd
00000020: faa3 093e ddbd 54be 63cf 4cbd 4f75 f9bd
00000030: 06ec e7bd 4628 713e 4225 553e 53b8 c23d
00000040: 5639 593c a761 69be f7c9 463d 0dd0 273d
00000050: 777e 7abe 622c 9d3d 97b1 2cbe d332 1fbe
00000060: 69aa e6bd 1963 38bc 2633 393e 936d 173e
00000070: 0c65 953b 6122 09be 0122 babd 9dd2 6dbe
00000080: 2fbc 2f3e 20f6 453e 4025 f93d ffc7 f43d
00000090: d718 d63d 42a8 0e3e a129 153e d748 17be
000000a0: 6213 b0bd 1ed9 513e 94b9 bc3d 15dc 8cbd
000000b0: 420d 78bc a78c 133e 29c5 7f3e 9586 d43d
000000c0: aa21 45be 1188 82be 52a5 26be eb59 403c
000000d0: 936e b0bd 13a6 333e ca91 c53b ab46 6c3e
000000e0: 4b19 1dbe 074e 76bc afb8 dcbd da5a 933d
000000f0: 0630 aa3d bf98 44be 8217 063e 207e 563e
00000100: 4228 403e 9275 2f3e c2b4 093e 5dd5 59be
00000110: 9d0f 25be fa81 e1bc 176d 4a3e 7b23 793e
00000120: fafe f63d 992c 673e 1c30 17be 894f 6cbe
00000130: bacb ce3d 2f5c 6e3e e41b f33d 7202 48be
00000140: 0de0 38be 67c2 1f3e 8b2b 4ebd caf9 6cbd
00000150: 5d21 073d 03de 5f3d e5ca 6a3e 10db fcbd
00000160: 6db5 813e fb26 18bd ee2a 09be 7734 453a
00000170: c3bf 0cbe 3112 f93b 9dbd 533e 20ca 69be
00000180: eb3c a0bc fb39 ab3d 5145 8ebc bedc 0cbe
00000190: c40c 063e b887 b03c 8ec6 053d 02a5 983d
000001a0: b5a4 b03d 1fc3 d33d 9f2c ac3d 1807 4dbe
000001b0: 7d99 21be f25d 50be 70e6 113c a397 91bc
000001c0: 3343 0abe 5636 75be 239e 0b3e ee14 8a3d
000001d0: 19c1 0b3e c37b 81be 6996 c6bd 134e 82bd
000001e0: 7c7f a7bd 8e76 ccbd 4f00 9b3b c094 89bc
000001f0: e495 73be 9563 7a3e 1d27 2bbe 69c1 9bbc
00000200: 004d c9bd 5462 a63d 6fdc 2fbd c90f 323e
00000210: ff99 48bd 3f25 9d3d eb7a 283e 2b6f 423b
00000220: 5cb6 65bc 43fd ad3b e064 1abe 2d65 4fbe
00000230: 75ff 17be cd97 09be 8c96 413e 7397 18bd
00000240: 73af 0d3e 213a f1bd 6958 8c3e 9bbd 313e
00000250: dae4 7c3d 366f 5f3e c2f2 6ebe 3c8a 0f3e
00000260: c7c5 683e 6c79 14be 456c 1cbe 01b6 6a3d
00000270: 1c0c ea3d 0555 a8bd ca10 273e e9d4 c43d
00000280: 09f9 4bbe e93e 813e 8b62 653e c809 603e
00000290: cd87 60be 7fb2 44bd 8dfb 063e cbe7 7c3e
000002a0: 9a84 48be b73a 603e 8f09 86bd 3c10 00be
000002b0: f88e f2bd 0155 0a3e 1185 1bbe 761e 0f3e
000002c0: 3a51 c6bb f577 4abd fc6c a5bd ba4b 823d
000002d0: 6ef7 f539 d460 8a3e 3a97 4f3e ae9f 6fbe
000002e0: 8c07 7b3d 00ee 3bbe 0539 0fbe 6e69 0f3e
000002f0: 22d5 523e 9a71 053e 4291 09be 12f9 47be
00000300: dfc4 c83d af51 b53d 8a43 bb3d 7563 41bd
00000310: 6d93 fbbd 9ee4 e53d 744c dfbd e00b 8fbc
00000320: 267d 50bd bc44 f1bd 5294 073e 691e d6bd
00000330: 8345 2e3d a537 0b3e 32ae 2ebc 2ef9 9fbd
00000340: 4c37 32be b32d 31bc 86d3 83bd edda 4abe
00000350: d54f 2e3d 17cd 3bbe 76cb 123d 48f8 103d
00000360: d11a 003e 003d 7d3c fd0b 6ebd 6efe 55bd
00000370: b0a1 7ebe adb2 0cbe 3e7a f5bd 3ccf 153d
00000380: 2db8 59be ab82 1ebe eaf6 b73d 003b 133d
00000390: bf26 bf3d e36d 583e 745d f73c 5155 0f3e
000003a0: b472 15be 7838 33be a37c e33c 42b5 42be
000003b0: bb5b 13be b2e5 07be 113e 2fbe 9ea9 583e
000003c0: 8eec da3d e330 9cbe adc3 233e bf59 20be
000003d0: 5594 a6bc ac05 483d 3135 f2bc a33a ddbd
000003e0: 2433 9b3b ebc8 95be e7f6 97bc 84c7 953d
000003f0: 999c e8bd 3d52 5cbe bd05 053e 2adc c63d

encoder.0.bias f4 [256]
-0.08649063 0.12619136 -0.22545873 -0.16566916 0.051204197 0.06335255 -0.055491652 0.21811178
-0.2047126 0.07347433 0.0021265848 -0.14725444 0.023561152 0.15938883 -0.0025758229 -0.17253704
0.10063773 -0.16016316 0.11650602 -0.09308843 0.21879998 0.0013922411 0.10383325 -0.03360586
0.079467885 -0.17068462 0.17577042 0.08071825 0.14127159 -0.07469087 0.032827526 0.077356644
0.17333636 0.030412605 0.0985712 -0.1475282 -0.029654004 -0.17170987 0.20405576 -0.13538064
-0.19591472 -0.116549514 -0.017065328 -0.09960917 -0.11470795 0.09798825 -0.13043213 0.058119345
-0.05721147 0.23969117 0.1636041 -0.21672906 0.038540293 -0.16059175 -0.032791216 0.0009349709
0.008682989 -0.20670402 -0.23071717 0.06586601 -0.048369844 -0.058597233 0.027288135 -0.0386871
0.04744039 0.13533725 -0.041033532 0.13509855 0.24199429 0.1566718 0.092612065 0.062214404
-0.18910177 0.19077379 -0.0509796 0.22254506 -0.03588417 -0.13742726 0.0998423 -0.09978244
-0.11418088 0.22292764 -0.047748018 -0.05745721 0.0065273875 0.11273821 -0.019443111 0.091006555
-0.1917046 0.12623996 0.1731796 0.08517142 -0.2393975 0.062181022 0.21226919 -0.17442049
0.16122977 0.24359171 0.14718221 0.20723757 -0.046680626 -0.18284313 0.12726675 -0.0729505
-0.13208464 -0.15679604 0.10497855 0.2508303 -0.16062061 0.13858987 0.011870702 -0.20776
-0.05046154 -0.20848553 -0.012521181 -0.19536367 0.07784383 -0.17811772 0.021405542 -0.12911195
-0.13578565 -0.07826364 -0.14836413 -0.23842306 0.0899606 -0.18452166 0.110799246 0.037222262
0.20034096 -0.15535371 0.2289389 0.21505228 0.0057123452 0.20188399 0.115937054 0.124587424
0.046881013 0.24123748 0.09231653 -0.22943239 0.16220883 -0.08094662 0.19275299 -0.12407403
-0.25532442 0.0006312467 0.10909491 -0.030789455 -0.19250052 0.024239691 -0.08650101 0.12312479
-0.01190708 -0.10776103 -0.020010768 -0.066734076 0.059602268 0.15159853 -0.23525833 0.023676185
-0.05629752 0.22888927 -0.05856793 -0.20123683 0.0034672925 0.0007205448 -0.05793646 0.16750222
-0.231274 0.0006382442 -0.06214833 0.20133695 0.14288813 0.062997326 0.17761484 -0.08457472
-0.12970349 0.07079004 0.17081675 -0.15574564 -0.1695452 -0.06327971 0.20606723 -0.09092744
-0.16218644 0.022576865 0.12689468 -0.10516855 0.16819048 0.043495353 -0.09549679 -0.1338437
0.13320498 -0.087277465 0.22070858 0.0951263 -0.080507666 0.19072019 -0.24672653 -0.1493035
-0.083765395 -0.0028723567 -0.033164542 -0.109564826 -0.22920865 -0.1884225 -0.19970338 0.21160969
-0.028743958 0.1849727 -0.0015700597 -0.22943904 0.20053658 -0.10368217 0.15025383 0.18912359
-0.121082366 0.0027853423 0.066276826 0.04729849 0.1626087 -0.098147616 -0.19904907 0.1927159
0.025178233 -0.13137619 0.07815543 0.15752116 -0.16490544 0.20691337 0.08950773 -0.13045229
-0.08645073 -0.10595418 0.043946117 0.02830473 -0.044502053 -0.1245238 0.01725672 -0.22500575
0.14861155 -0.14641151 -0.21804169 -0.0561673 -0.037454024 -0.05870921 0.03485881 0.065927856
0.14136583 -0.12382012 0.20514521 -0.10399082 0.1911122 -0.12595764 -0.18806356 0.057760645
00000000: 0022 b1bd 4f38 013e a7de 66be 2da5 29be
00000010: 7ebb 513d fbbe 813d 374b 63bd b258 5f3e
00000020: 2ea0 51be b679 963d 2c5e 0b3b dec9 16be
00000030: 5103 c13c d336 233e 23cf 28bb 8dad 30be
00000040: 271b ce3d d001 24be b59a ee3d 26a5 bebd
00000050: 1a0d 603e dc7b b63a 87a6 d43d 4ca6 09bd
00000060: 0fc0 a23d f3c7 2ebe 29fd 333e 9c4f a53d
00000070: 80a9 103e 87f7 98bd 2876 063d 296d 9e3d
00000080: 167f 313e db23 f93c b3df c93d a211 17be
00000090: f4ec f2bc b6d4 2fbe fef3 503e 39a1 0abe
000000a0: de9d 48be 83b1 eebd 96cc 8bbc e4ff cbbd
000000b0: 00ec eabd 10ae c83d 0090 05be 8d0e 6e3d
000000c0: 9356 6abd 9a71 753e d587 273e 39ee 5dbe
000000d0: 6ddc 1d3d 2a72 24be 1550 06bd d618 753a
000000e0: 1843 0e3c 38aa 53be 1f41 6cbe c2e4 863d
000000f0: 751f 46bd a703 70bd 5e8b df3c 5d76 1ebd
00000100: db50 423d d995 0a3e c712 28bd 4657 0a3e
00000110: 5acd 773e 936e 203e 65ab bd3d 88d4 7e3d
00000120: e5a3 41be 345a 433e fccf 50bd dae2 633e
00000130: 48fb 12bd bbb9 0cbe 1f7a cc3d bc5a ccbd
00000140: aad7 e9bd 2547 643e 6d93 43bd 4058 6bbd
00000150: b2e3 d53b 4ae3 e63d 2947 9fbc a561 ba3d
00000160: 364e 44be 0c45 013e fe55 313e 5a6e ae3d
00000170: 9e24 75be 87b1 7e3d 185d 593e 499b 32be
00000180: 6b19 253e 1b70 793e efb6 163e 1636 543e
00000190: 2f34 3fbd 3b3b 3bbe 3752 023e 1267 95bd
000001a0: 3241 07be 248f 20be fefe d63d d46c 803e
000001b0: bb79 24be 81ea 0d3e 557d 423c 0abf 54be
000001c0: c3b0 4ebd 3b7d 55be a425 4dbc 6a0d 48be
000001d0: 966c 9f3d 7e64 36be ad5a af3c ec35 04be
000001e0: 650b 0bbe b048 a0bd c4ec 17be 2d25 74be
000001f0: 433d b83d 3ff3 3cbe b7ea e23d 5f76 183d
00000200: 2e26 4d3e 0b15 1fbe f66e 6a3e aa36 5c3e
00000210: a02e bb3b adba 4e3e 6870 ed3d b127 ff3d
00000220: 4e06 403d f506 773e 7310 bd3d 53f0 6abe
00000230: 121a 263e 57c7 a5bd 0a61 453e 861a febd
00000240: e2b9 82be 407a 253a 276d df3d 2b3a fcbc
00000250: db1e 45be 5192 c63c 7127 b1bd da28 fc3d
00000260: ea15 43bc d1b1 dcbd 9fed a3bc e0ab 88bd
00000270: 8221 743d a53c 1b3e 8fe7 70be 8ff4 c13c
00000280: 3a98 66bd f361 6a3e ede4 6fbd 0711 4ebe
00000290: 843b 633b f1e2 3c3a c84e 6dbd b485 2b3e
000002a0: 17d3 6cbe d84f 273a 3f8f 7ebd 462b 4e3e
000002b0: 4451 123e be04 813d aae0 353e 8335 adbd
000002c0: fed0 04be 5efa 903d 96ea 2e3e c97b 1fbe
000002d0: 429d 2dbe cb98 81bd 4a03 533e 2a38 babd
000002e0: 3414 26be 1ef3 b83c aef0 013e 9c62 d7bd
000002f0: 203a 2c3e 2f28 323d d293 c3bd 530e 09be
00000300: e366 083e 87be b2bd 6e01 623e 94d1 c23d
00000310: 34e1 a4bd 274c 433e e1a5 7cbe 04e3 18be
00000320: 318d abbd 263e 3cbb 8bd7 07bd 8663 e0bd
00000330: acb5 6abe d4f1 40be 0b7f 4cbe 36b0 583e
00000340: 7378 ebbc 7c69 3d3e 76ca cdba 11f2 6abe
00000350: 7659 4d3e 5157 d4bd 24dc 193e 9da9 413e
00000360: 08fa f7bd 4a8a 363b 25bc 873d 10bc 413d
00000370: e582 263e 9e01 c9bd 85d3 4bbe 5157 453e
00000380: 9542 ce3c 7b87 06be f40f a03d 3a4d 213e
00000390: f9dc 28be 19e1 533e d44f b73d 4995 05be
000003a0: 150d b1bd 81fe d8bd d800 343d 52df e73c
000003b0: c947 36bd 5606 ffbd f75d 8d3c e867 66be
000003c0: a02d 183e e6ec 15be 5246 5fbe af0f 66bd
000003d0: 6469 19bd 1279 70bd 1dc8 0e3d 2f05 873d
000003e0: 34c2 103e 6795 fdbd 9611 523e 24f9 d4bd
000003f0: ebb2 433e 0afb 00be bc93 40be 6d96 6c3d

encoder.1.weight f4 [256]
0.97944707 1.0012592 0.9651956 1.0595335 1.0138757 0.9259803 1.0106717 1.0168456
0.9719812 0.9736989 0.9964384 1.0099851 0.96279055 1.0110339 1.0564489 1.0049559
0.97947025 0.9981049 0.9709897 1.0964892 1.0436854 0.98464245 1.0193607 1.0141704
1.0228372 1.0055513 1.0469713 0.98060143 0.9605242 1.1013734 1.0517981 0.9998891
0.99302727 1.0212675 0.9745921 0.9784529 1.0160888 1.018032 1.1182458 0.99792707
1.0751753 0.96670324 0.9794718 0.9615125 0.9825239 0.97452265 0.9750666 0.97010905
0.993993 0.9667927 1.055535 1.0259511 1.0307792 1.0378727 0.96256596 0.9500825
1.0435599 1.0097933 0.99376875 0.9855997 0.98281443 0.95077854 0.98161155 1.0318384
1.0044817 0.99174863 0.9548204 0.9796919 0.95662075 0.9817118 1.0938989 1.0011368
0.99063903 0.98993146 0.95890296 0.97975856 0.94849056 1.0323973 0.95855945 0.9442848
1.0670794 0.9929374 1.0288553 0.976215 0.9780056 0.962013 1.0013679 1.046873
0.99136335 0.9426583 0.967482 0.9601722 1.0220295 0.94203806 0.99628466 0.97514445
0.9844844 0.99632955 0.9657705 1.0265517 0.9463839 0.99994797 0.98051965 1.0402979
0.9959497 1.0413587 1.0526158 1.0094622 0.9999932 0.95903367 0.9648968 0.9411754
0.9621314 1.0304148 0.97733533 0.9686931 0.9850122 1.0083097 1.0686615 0.9987596
1.0069808 0.98326147 0.98279315 1.0504179 1.03353 0.971357 0.96582806 1.0279093
1.0870335 0.9953951 0.95972914 0.9700954 0.9887664 0.9820282 0.9930594 1.0304683
0.94887155 1.0086024 1.0078522 0.98819023 1.0190308 0.9913695 1.0004109 0.97872
0.99021477 1.0301644 1.002256 0.9605365 1.019975 1.1199257 0.979138 1.0790187
1.0146557 0.9385058 0.97908735 0.9564759 0.98244953 1.0815357 0.97562045 1.0755457
0.99270797 0.95482945 0.9782056 1.037075 0.98300076 1.0021154 1.0110536 1.0242202
0.9903323 0.96424633 1.0071998 0.95868236 0.95354325 1.0268115 0.9576198 1.0009193
1.0218158 0.9953843 1.0158459 1.069272 0.974562 1.0029151 0.95796627 1.0656177
0.97908354 1.028809 1.004009 1.0057352 1.0150979 1.0196127 0.9748716 0.9715152
1.038609 1.0070587 0.99681664 0.9832024 1.0717019 1.0842544 0.95511216 0.97529006
1.008242 1.0232548 1.0248594 0.9669504 0.9847679 0.9901611 1.0026506 0.975588
0.99898267 1.0463396 1.0183455 1.0094432 1.0188922 0.9993896 0.94635254 0.95446676
1.0502193 0.9906403 0.9575396 0.9623765 0.99546903 0.96721995 1.0771507 1.0810713
1.0088339 0.9514755 0.9378847 1.0075432 1.0210358 0.97971785 0.9889583 0.9482179
0.99908036 0.99320227 0.9567803 0.9618976 0.9640868 0.97820354 1.0594529 1.0487561
0.99305683 1.0374249 1.0078822 0.98352075 1.010167 0.9617836 0.97192144 0.9902389
0.94152707 1.0931108 0.9882365 0.9424678 1.0392828 0.9636633 0.9606913 0.9819808
00000000: 0bbd 7a3f 4329 803f 0f17 773f cb9e 873f
00000010: aec6 813f 0c0d 6d3f b15d 813f ff27 823f
00000020: c3d3 783f 5544 793f 9616 7f3f 3147 813f
00000030: 7179 763f 8f69 813f b839 873f 65a2 803f
00000040: 90be 7a3f cd83 7f3f c892 783f c259 8c3f
00000050: 7c97 853f 8711 7c3f 697a 823f 56d0 813f
00000060: 54ec 823f e8b5 803f 2803 863f b208 7b3f
00000070: eae4 753f cef9 8c3f 52a1 863f bbf8 7f3f
00000080: 0937 7e3f e5b8 823f de7e 793f e47b 7a3f
00000090: 330f 823f df4e 823f ae22 8f3f 2678 7f3f
000000a0: 589f 893f dd79 773f aabe 7a3f af25 763f
000000b0: b086 7b3f 517a 793f f79d 793f 1159 783f
000000c0: 5376 7e3f ba7f 773f c51b 873f 5e52 833f
000000d0: 93f0 833f 03d9 843f b96a 763f 9b38 733f
000000e0: 5f93 853f e840 813f a167 7e3f 4350 7c3f
000000f0: ba99 7b3f 3966 733f e54a 7b3f 4813 843f
00000100: db92 803f 3de3 7d3f 1c6f 743f 17cd 7a3f
00000110: 19e5 743f 7751 7b3f e104 8c3f 4025 803f
00000120: 859a 7d3f 266c 7d3f aa7a 753f 75d1 7a3f
00000130: 47d0 723f 9825 843f 2764 753f a6bc 713f
00000140: 0f96 883f 2531 7e3f 88b1 833f 3ae9 793f
00000150: 935e 7a3f 7c46 763f d32c 803f efff 853f
00000160: fdc9 7d3f 0e52 713f e6ac 773f d8cd 753f
00000170: ddd1 823f 6829 713f 830c 7f3f 11a3 793f
00000180: 2b07 7c3f 740f 7f3f bc3c 773f 0c66 833f
00000190: 3746 723f 97fc 7f3f 5603 7b3f 7b28 853f
000001a0: 8ff6 7e3f 3e4b 853f 1dbc 863f 0f36 813f
000001b0: 8eff 7f3f 3b83 753f 7a03 773f dff0 703f
000001c0: 3e4e 763f a2e4 833f a632 7a3f 45fc 773f
000001d0: c229 7c3f 4b10 813f e6c9 883f b6ae 7f3f
000001e0: bfe4 803f 06b7 7b3f 5598 7b3f 1874 863f
000001f0: b64a 843f daaa 783f 8240 773f 8892 833f
00000200: ea23 8b3f 37d2 7e3f cfb0 753f 2c58 783f
00000210: cb1f 7d3f 3366 7b3f 2439 7e3f 63e6 833f
00000220: 3fe9 723f e219 813f 4d01 813f 09fa 7c3f
00000230: 9a6f 823f 64ca 7d3f 770d 803f 658d 7a3f
00000240: b77e 7d3f 6ddc 833f ed49 803f b8e5 753f
00000250: 8a8e 823f ba59 8f3f caa8 7a3f 491d 8a3f
00000260: 3de0 813f eb41 703f 78a5 7a3f 9bdb 743f
00000270: d081 7b3f c36f 8a3f 43c2 793f 7bab 893f
00000280: 1c22 7e3f b46f 743f af6b 7a3f e0be 843f
00000290: f0a5 7b3f 5145 803f 346a 813f a619 833f
000002a0: 6b86 7d3f d9d8 763f eceb 803f 356c 753f
000002b0: 691b 743f 8f6e 833f 9226 753f 201e 803f
000002c0: dcca 823f 81d1 7e3f 3d07 823f e8dd 883f
000002d0: e57c 793f 865f 803f 473d 753f 2966 883f
000002e0: 38a5 7a3f 03b0 833f 5e83 803f eebb 803f
000002f0: baee 813f ab82 823f 2f91 793f 38b5 783f
00000300: 24f1 843f 4de7 803f 602f 7f3f 27b3 7b3f
00000310: 872d 893f d9c8 8a3f 3b82 743f 9cac 793f
00000320: 130e 813f 03fa 823f 982e 833f 108a 773f
00000330: c019 7c3f 337b 7d3f db56 803f 23c0 793f
00000340: 54bd 7f3f 75ee 853f 2559 823f 6f35 813f
00000350: 0f6b 823f ffd7 7f3f 2944 723f ef57 743f
00000360: 966d 863f 9a9a 7d3f 5121 753f 4e5e 763f
00000370: 0fd7 7e3f ba9b 773f 13e0 893f 8b60 8a3f
00000380: 7821 813f e693 733f 3619 703f 2df7 803f
00000390: 4db1 823f cace 7a3f 5f2c 7d3f 69be 723f
000003a0: bbc3 7f3f 8142 7e3f 8eef 743f ec3e 763f
000003b0: 64ce 763f 8c6b 7a3f 279c 873f a43d 863f
000003c0: f938 7e3f 57ca 843f 4902 813f 04c8 7b3f
000003d0: 274d 813f 7337 763f d8cf 783f 4c80 7d3f
000003e0: eb07 713f 0eeb 8b3f 11fd 7c3f 9245 713f
000003f0: 3807 853f a3b2 763f ddef 753f 1863 7b3f

encoder.1.bias f4 [256]
-0.010897166 -0.0140168145 -0.011681748 0.03618194 0.028764108 -0.03983271 0.10227362 0.005354489
-0.033782013 0.0010768722 -0.011750057 -0.02012495 0.0051520173 -0.03313623 0.0029310305 -0.016034452
-0.047047317 0.015334179 -0.04258631 0.0029845405 -0.09161019 0.004981145 0.020256646 0.013116554
-0.022481889 0.057054352 0.010240887 0.009349503 -0.008506506 -0.021822114 -0.029781507 0.012723672
-0.016397601 0.017563185 0.040728286 0.027606502 0.083493926 0.05200155 0.03268483 -0.021998595
0.024032528 -0.012133562 -0.020860948 -0.032281477 0.0665531 -0.004245138 -0.07333245 -0.015346892
-0.030280542 -0.024768263 -0.006245053 -0.026697474 -0.02653662 -0.035947025 -0.024257567 -0.013053332
0.011584216 -0.04817525 -0.020642959 -0.03360925 0.052174013 -0.055427365 -0.03168623 -0.0030335188
-0.0381994 0.010913381 -0.038993377 0.004600995 -0.030542046 -0.020889992 0.032558337 0.06646784
0.028648745 -0.016059643 0.015417443 -0.040215787 -0.04884459 -0.007453463 -0.008514479 -0.037926376
-0.0015106851 0.006589036 0.012391659 0.014051293 0.10303041 -0.025471514 0.04965285 0.00072957337
0.020531198 -0.03114412 -0.044900507 -0.051139966 0.0014683153 -0.03473621 0.06356472 0.02674742
-0.007730521 0.07854812 -0.009457133 0.09716318 -0.04158758 -0.008676781 -0.031570774 -0.020452777
0.085531175 0.064615384 -0.011841085 -0.027885303 -0.00094086514 -0.029750435 0.074267365 -0.05210678
-0.03034417 -0.053386882 -0.0031835858 -0.028006189 -0.044488244 0.03418912 0.008720582 0.093414
-0.0045889867 -0.008132956 -0.049511496 0.013042041 0.027570734 -0.017075125 -0.012111788 0.051328685
-0.034975704 -0.03581451 -0.020504642 -0.011443821 -0.028111171 -0.00063074206 0.008280747 0.018626636
-0.043548662 -0.0083307875 0.053653277 -0.042267844 -0.0027692365 -0.015006554 -0.005047376 -0.04207458
0.003070553 0.032407492 0.0067047365 -0.024800226 -0.014878052 -0.0064628753 -0.045297503 -0.043849707
0.009575608 -0.045841463 -0.011605964 -0.057096016 -0.03724588 -0.039033443 -0.01097353 0.02240955
0.014806891 -0.03452943 0.0017701621 -0.01600817 -0.02008177 -0.047002673 -0.00027449234 0.111891724
-0.013762849 -0.02952413 0.027898777 -0.052475624 -0.06027024 -0.0055528376 -0.03274069 0.027018912
0.023216091 0.09024738 0.06569287 -0.03652796 0.066876836 -0.010428113 -0.056385167 -0.016705712
-0.0049465783 0.036990367 0.13236848 -0.06139212 -0.008007258 -0.027349146 -0.039375976 -0.02886224
-0.053138167 0.03449415 0.013715091 -0.029914184 -0.02030525 0.029272173 -0.009121124 -0.01098981
0.015584205 0.011245898 -0.0007190668 -0.024678577 -0.0016368673 0.019965624 0.019627417 0.015405819
-0.017510926 0.008454911 -0.03800774 -0.012158131 -0.01428473 -0.038065344 -0.062909745 -0.039945964
-0.013208718 -0.0052592144 -0.025850737 -0.009952145 0.039905023 -0.036964495 0.0065262667 -0.043737568
-0.03357847 -0.032137264 -0.014442254 0.0131295575 0.06414657 0.09321817 -0.0070969732 -0.03314537
-0.012918157 -9.232237e-05 -0.030441303 -0.05146032 -0.016669132 -0.014146414 0.0021976957 -0.01639955
-0.030023076 -0.006368108 0.033639558 0.005803089 0.11047021 -0.039286714 -0.026727695 -0.054154634
-0.057742905 -0.030631775 -0.050296955 -0.06422233 -0.024734188 -0.019275466 -0.038586374 -0.041639276
00000000: 078a 32bc c8a6 65bc cd64 3fbc 8433 143d
00000010: b5a2 eb3c a027 23bd d574 d13d b674 af3b
00000020: 025f 0abd d625 8d3a 5083 40bc 14dd a4bc
00000030: 41d2 a83b dbb9 07bd 8816 403b af5a 83bc
00000040: b0b4 40bd 353c 7b3c fc6e 2ebd 4898 433b
00000050: 209e bbbd df38 a33b 44f1 a53c d1e6 563c
00000060: f02b b8bc d3b1 693d 65c9 273c a82e 193c
00000070: df5e 0bbc 4ac4 b2bc 59f8 f3bc f376 503c
00000080: 4354 86bc abe0 8f3c b4d2 263d 0827 e23c
00000090: ddfe aa3d 94ff 543d 87e0 053d 6636 b4bc
000000a0: dddf c43c d9cb 46bc 94e4 aabc 9539 04bd
000000b0: fe4c 883d cc1a 8bbb 532f 96bd 8871 7bbc
000000c0: e60e f8bc d0e6 cabc 4da3 ccbb a9b4 dabc
000000d0: 5363 d9bc 303d 13bd ceb7 c6bc a5dd 55bc
000000e0: b9cb 3d3c 6953 45bd 6c1b a9bc daa9 09bd
000000f0: 6bb4 553d ce07 63bd 6cc9 01bd 00ce 46bb
00000100: f976 1cbd 0ace 323c 85b7 1fbd f2c3 963b
00000110: 5033 fabc 7d21 abbc e45b 053d 4a20 883d
00000120: c6b0 ea3c 838f 83bc 7199 7c3c 4fb9 24bd
00000130: 4411 48bd 2e3c f4bb 5080 0bbc b058 1bbd
00000140: 2e02 c6ba d7e8 d73b 6306 4b3c 6537 663c
00000150: 9c01 d33d a3a9 d0bc c960 4b3d d740 3f3a
00000160: 0b31 a83c f421 ffbc 98e9 37bd 2478 51bd
00000170: 7c74 c03a 8e47 0ebd 382e 823d 681d db3c
00000180: 4f50 fdbb d6dd a03d 17f2 1abc 7dfd c63d
00000190: bd57 2abd 0f29 0ebc 5b50 01bd 958c a7bc
000001a0: f82a af3d 1255 843d 1c01 42bc b86f e4bc
000001b0: 64a4 76ba 2fb7 f3bc 7d19 983d eb6d 55bd
000001c0: 5694 f8bc 34ac 5abd b5a3 50bb 3c6d e5bc
000001d0: 4e39 36bd e409 0c3d c6e0 0e3c d74f bf3d
000001e0: 365f 96bb 1740 05bc 91cc 4abd 49ae 553c
000001f0: 05dc e13c 22e1 8bbc 8570 46bc 073e 523d
00000200: af42 0fbd 3cb2 12bd 5af9 a7bc dd7e 3bbc
00000210: 6649 e6bc 6258 25ba f8ab 073c e396 983c
00000220: 1560 32bd db7d 08bc 8ac3 5b3d 0c21 2dbd
00000230: 147c 35bb 0dde 75bc 7564 a5bb 6556 2cbd
00000240: 553b 493b b8bd 043d 68b3 db3b d829 cbbc
00000250: 13c3 73bc 87c6 d3bb e089 39bd c09b 33bd
00000260: 03e3 1c3c 42c4 3bbd f126 3ebc 83dd 69bd
00000270: 238f 18bd 88e1 1fbd 52ca 33bc 3c94 b73c
00000280: 9a98 723c bb6e 0dbd c904 e83a 9123 83bc
00000290: 8682 a4bc e085 40bd bde9 8fb9 7d27 e53d
000002a0: 937d 61bc 97dc f1bc fa8b e43c aef0 56bd
000002b0: eddd 76bd 94f4 b5bb 1a1b 06bd c456 dd3c
000002c0: ac2f be3c 9ed3 b83d fc89 863d 589e 15bd
000002d0: b9f6 883d adda 2abc 22f4 66bd 6bda 88bc
000002e0: e816 a2bb 3683 173d 9a8b 073e 4e76 7bbd
000002f0: e030 03bc 510b e0bc b448 21bd 8170 ecbc
00000300: 68a7 59bd bd49 0d3d 43b5 603c 970e f5bc
00000310: 3257 a6bc 32cc ef3c c470 15bc 9b0e 34bc
00000320: e554 7f3c b740 383c c27f 3cba ba2a cabc
00000330: 278c d6ba f38e a33c adc9 a03c b068 7c3c
00000340: 1373 8fbc 7886 0a3c 01ae 1bbd e632 47bc
00000350: 800a 6abc 68ea 1bbd d3d6 80bd 619e 23bd
00000360: 6169 58bc 7d55 acbb edc4 d3bc 520e 23bc
00000370: 7373 233d 1568 17bd 4bda d53b 2a26 33bd
00000380: 9489 09bd 5da2 03bd 349f 6cbc 5b1d 573c
00000390: 475f 833d 2be9 be3d ba8d e8bb 71c3 07bd
000003a0: ada6 53bc 329d c1b8 0a60 f9bc 0ec8 52bd
000003b0: b48d 88bc 5cc6 67bc 3707 103b 5958 86bc
000003c0: f4f2 f5bc 90ab d0bb a2c9 093d d727 be3b
000003d0: 353e e23d 1beb 20bd 0af4 dabc 40d1 5dbd
000003e0: d383 6cbd 7def fabc 2e04 4ebd ff86 83bd
000003f0: 5a9f cabc 95e7 9dbc bf0c 1ebd f28d 2abd

encoder.1.running_mean f4 [256]
10.278967 -20.590704 26.87499 -16.560495 21.824003 0.11582182 -0.49482507 -16.003746
3.4936047 -5.993435 27.554937 -2.1314435 6.74946 -14.783939 -11.983435 -28.415827
16.665869 6.4661903 0.95401436 -21.428087 -9.08282 1.8483626 2.284452 -3.2741623
-9.701223 10.516601 -18.81442 2.1411483 5.1433735 -14.757243 -4.752117 -6.710621
9.862154 -2.0016794 4.1192894 6.7098584 2.3355255 1.7158495 -25.1769 6.162191
-11.935089 3.3779726 4.7298145 3.092702 11.564634 20.198034 -16.696777 0.938808
-9.1152935 -10.418318 -14.567939 -21.079391 -22.941666 -21.72682 -6.562892 6.3530693
-18.653738 -8.904754 -1.7407594 2.818882 14.98626 -21.747179 4.6199045 -20.970762
-12.704352 2.6857686 -5.5155034 -18.060568 -7.6829343 1.5624393 -21.399054 4.229162
11.326605 13.099543 9.274914 -8.923941 -10.249553 -5.3846083 3.586071 -1.800251
-10.285406 1.526686 -2.601582 4.2733307 14.860161 -6.8608694 0.8136792 -10.627339
1.8096868 12.703476 3.5651398 18.4189 0.63885665 -11.953253 3.7340012 11.280558
4.735995 10.175601 1.7399904 1.9293071 13.33799 3.639965 -1.6605284 -15.4383745
12.913855 7.745952 -11.706241 -10.998408 5.1652107 10.789477 11.124453 6.3589177
0.637388 -15.543279 -9.419398 16.117126 15.872021 21.688786 -15.592614 4.343093
24.923145 -0.93059707 0.2321819 -19.809938 8.25063 -2.6676805 15.840103 -0.5691426
-19.94659 -16.067877 1.9388838 0.07359429 10.241323 -1.2800245 1.7130913 -14.925643
0.46832505 -17.879976 17.261282 22.994398 -9.744101 -1.2550426 -16.445433 16.262003
-2.628707 -8.48965 -2.0234551 8.719532 0.8365885 -27.326387 7.2663646 -17.450596
13.246859 -4.8938684 -2.5232327 -17.224083 -1.7811471 -14.886263 -0.028216163 -16.937128
18.242006 -13.342932 13.73682 -18.104929 -4.4397244 -15.875645 -22.714813 12.5772295
-4.365758 -7.752424 8.469759 -0.85674936 -2.456624 -15.28712 3.6097763 8.77631
-3.8545957 11.101769 23.759596 -15.568658 7.917925 19.62833 0.05809071 -23.858978
-22.693777 1.702425 10.479517 -17.656315 5.6841516 -20.364244 -20.37936 16.85471
-19.23002 13.037747 1.1626949 -6.881922 -13.251725 -14.22604 -7.443302 1.1190174
21.493786 -15.48917 9.19629 -18.56954 9.94301 -2.9164443 15.312838 7.630607
-14.45573 -16.431425 -23.15171 6.576516 6.742999 -12.561513 -4.5996456 8.741611
-19.730879 7.0309134 3.744866 -13.345776 2.910271 -9.69515 -23.27595 -20.195225
-16.016994 8.725733 -13.247256 3.7098908 7.810092 6.3670626 4.3856096 -11.319241
-7.5155725 6.948746 13.674495 -12.940988 -9.889834 20.321856 -18.013573 -21.819923
4.8322506 -12.648226 16.329977 4.4953403 9.231198 -0.5507695 -0.06745067 -22.879494
2.1157029 -27.948925 -16.686113 -27.797588 -13.1196785 1.6674515 -1.396462 -15.795191
00000000: a676 2441 c3b9 a4c1 fbff d641 e57b 84c1
00000010: 8f97 ae41 fe33 ed3d b659 fdbe ac07 80c1
00000020: 3897 5f40 38ca bfc0 8370 dc41 9269 08c0
00000030: 94fb d740 048b 6cc1 26bc 3fc1 9d53 e3c1
00000040: b353 8541 08eb ce40 493a 743f b96c abc1
00000050: 3b53 11c1 2597 ec3f 7634 1240 e08b 51c0
00000060: 3638 1bc1 ff43 2841 ef83 96c1 9308 0940
00000070: 8496 a440 ab1d 6cc1 5811 98c0 68bd d6c0
00000080: 62cb 1d41 841b 00c0 38d1 8340 29b7 d640
00000090: 4079 1540 f5a0 db3f 4b6a c9c1 ab30 c540
000000a0: 20f6 3ec1 b430 5840 a45a 9740 d4ee 4540
000000b0: be08 3941 9395 a141 0093 85c1 b955 703f
000000c0: 3ed8 11c1 6eb1 26c1 4716 69c1 98a2 a8c1
000000d0: 8888 b7c1 87d0 adc1 3603 d2c0 584c cb40
000000e0: db3a 95c1 df79 0ec1 34d1 debf 9068 3440
000000f0: b9c7 6f41 39fa adc1 42d6 9340 1fc4 a7c1
00000100: 0745 4bc1 a2e3 2b40 017f b0c0 0b7c 90c1
00000110: 99da f5c0 03fe c73f 4331 abc1 4c55 8740
00000120: c639 3541 ba97 5141 0c66 1441 76c8 0ec1
00000130: 2bfe 23c1 b64e acc0 3082 6540 a06e e6bf
00000140: 0691 24c1 726a c33f 5280 26c0 20bf 8840
00000150: 38c3 6d41 3e8c dbc0 484d 503f 9509 2ac1
00000160: d1a3 e73f 7041 4b41 402b 6440 e859 9341
00000170: 1c8c 233f 8640 3fc1 e0f9 6e40 2a7d 3441
00000180: 458d 9740 43cf 2241 01b8 de3f 89f3 f63f
00000190: 6868 5541 30f5 6840 328c d4bf 9503 77c1
000001a0: 269f 4e41 d7de f740 c34c 3bc1 7bf9 2fc1
000001b0: 6849 a540 b3a1 2c41 c2fd 3141 417c cb40
000001c0: dc2b 233f 45b1 78c1 dbb5 16c1 e0ef 8041
000001d0: ccf3 7d41 a282 ad41 597b 79c1 9efa 8a40
000001e0: 9a62 c741 9c3b 6ebf 18c1 6d3e c17a 9ec1
000001f0: 9502 0441 47bb 2ac0 1071 7d41 54b3 11bf
00000200: 9e92 9fc1 038b 80c1 582d f83f 9ab8 963d
00000210: 76dc 2341 d8d7 a3bf 9346 db3f 6fcf 6ec1
00000220: 4dc8 ef3e 310a 8fc1 1b17 8a41 87f4 b741
00000230: d6e7 1bc1 3ca5 a0bf 3f90 83c1 9518 8241
00000240: bc3c 28c0 9bd5 07c1 4a80 01c0 3483 0b41
00000250: aa2a 563f 719c dac1 0f86 e840 d29a 8bc1
00000260: 22f3 5341 929a 9cc0 a57c 21c0 ecca 89c1
00000270: a1fc e3bf 222e 6ec1 9525 e7bc 3d7f 87c1
00000280: a1ef 9141 a67c 55c1 04ca 5b41 e5d6 90c1
00000290: 3912 8ec0 a402 7ec1 f0b7 b5c1 553c 4941
000002a0: 4ab4 8bc0 db13 f8c0 2284 0741 ed53 5bbf
000002b0: 5439 1dc0 0b98 74c1 9306 6740 c46b 0c41
000002c0: b2b1 76c0 d9a0 3141 a713 be41 3919 79c1
000002d0: a45f fd40 d206 9d41 86f0 6d3d 30df bec1
000002e0: db8c b5c1 10e9 d93f 1aac 2741 2240 8dc1
000002f0: 92e4 b540 f9e9 a2c1 ee08 a3c1 72d6 8641
00000300: 15d7 99c1 9d9a 5041 30d3 943f b438 dcc0
00000310: 1107 54c1 dc9d 63c1 882f eec0 f63b 8f3f
00000320: 46f3 ab41 a4d3 77c1 0124 1341 6b8e 94c1
00000330: 9216 1f41 06a7 3ac0 6201 7541 ef2d f440
00000340: ac4a 67c1 8f73 83c1 b436 b9c1 d272 d240
00000350: a6c6 d740 f5fb 48c1 4c30 93c0 a3dd 0b41
00000360: d7d8 9dc1 3efd e040 e2ab 6f40 4c88 55c1
00000370: e141 3a40 561f 1bc1 2535 bac1 d28f a1c1
00000380: ce22 80c1 9a9c 0b41 c3f4 53c1 da6e 6d40
00000390: 46ec f940 fabe cb40 ea56 8c40 9c1b 35c1
000003a0: 927f f0c0 215c de40 bbca 5a41 490e 4fc1
000003b0: c33c 1ec1 2993 a241 cc1b 90c1 348f aec1
000003c0: cca1 9a40 225f 4ac1 cba3 8241 d4d9 8f40
000003d0: fdb2 1341 3bff 0cbf 9423 8abd 3409 b7c1
000003e0: ad67 0740 6697 dfc1 297d 85c1 7661 dec1
000003f0: 34ea 51c1 0d6f d53f 44bf b2bf 1ab9 7cc1

encoder.1.running_var f4 [256]
87.67228 59.10614 106.05878 113.95358 78.035736 120.147484 11.493344 76.48516
69.76159 70.832344 116.72986 149.77376 97.97336 69.39507 68.55164 179.88275
40.658295 49.590706 163.74797 163.12546 58.24757 56.712883 15.764229 23.635332
159.66226 274.2439 324.731 63.81802 40.095444 131.30222 174.83614 227.26595
105.481735 62.96564 49.356106 78.323784 25.651272 15.326677 380.71307 180.1735
53.2177 26.933193 146.00922 99.2481 135.9577 68.05223 96.723366 145.54665
172.85747 82.164894 81.70431 285.813 211.1606 325.1892 170.54536 22.878086
133.65488 32.79806 69.0938 93.548065 192.75107 70.53907 198.82468 127.84072
41.590096 230.34363 74.13925 95.21812 16.712954 8.239501 186.03864 40.594894
195.97534 48.09209 79.93571 40.145966 51.81771 106.50262 125.48748 58.11878
63.538883 59.667377 28.610065 49.46501 96.241 144.20195 7.287131 265.2347
21.739357 46.0584 15.866659 48.41346 53.083267 91.36986 14.945417 312.69376
8.813205 145.4788 104.63433 6.2891746 61.938152 171.39462 53.637012 191.76344
223.21062 65.49497 120.464165 53.43141 78.29591 36.828987 147.39053 156.36188
25.4998 117.38748 40.46686 67.29883 50.25738 306.44556 136.9199 23.749367
94.48872 58.56932 165.61473 85.75626 87.7583 64.08992 39.558933 19.853388
147.54445 75.71755 4.145277 76.66174 21.979914 13.953334 55.650978 324.86014
53.838985 54.15718 46.663097 94.36907 53.174862 22.739115 262.90164 125.57098
13.659467 46.75135 16.089737 75.4136 50.747635 337.62866 157.25899 92.29863
61.736816 129.202 36.77403 63.31776 135.37947 130.24966 29.42286 166.96725
52.54586 58.56201 108.73712 167.98524 101.86704 88.74106 103.72005 103.17707
118.150475 29.91303 16.665379 24.066105 80.32349 60.28933 104.58279 76.61344
32.84808 60.636757 280.1264 84.21329 63.127968 70.27808 31.569292 251.7944
69.786964 12.724312 160.72101 60.321842 17.025639 85.97339 72.793434 58.917206
162.7527 173.13548 24.241484 180.93985 86.50003 106.30684 75.65481 103.19109
55.915897 46.440907 54.608597 111.162346 178.12584 7.9377275 59.05785 202.3449
156.39653 197.17831 113.2896 98.15312 184.01328 111.03715 11.647149 32.91585
228.08461 88.09958 32.63004 80.471085 44.92522 35.167908 343.67798 203.80925
60.074898 105.325714 81.50874 93.1307 22.200624 64.75088 61.293365 82.18073
99.5555 171.80005 34.228676 30.515707 43.91892 62.216145 86.321976 373.20795
146.42082 81.869514 413.87442 30.083305 93.22955 17.71224 161.84132 411.9676
35.749283 260.91013 62.921257 106.92114 48.296516 53.308968 62.1756 35.748894
00000000: 3558 af42 b06c 6c42 181e d442 3ce8 e342
00000010: 4c12 9c42 834b f042 bde4 3741 67f8 9842
00000020: ef85 8b42 29aa 8d42 b075 e942 15c6 1543
00000030: 5cf2 c342 47ca 8a42 711a 8942 fce1 3343
00000040: 18a2 2242 e25c 4642 7bbf 2343 1e20 2343
00000050: 83fd 6842 fed9 6242 483a 7c41 2915 bd41
00000060: 8aa9 1f43 381f 8943 915d a243 a745 7f42
00000070: bc61 2042 5e4d 0343 0dd6 2e43 1544 6343
00000080: a6f6 d242 d1dc 7b42 a76c 4542 c7a5 9c42
00000090: ce35 cd41 123a 7541 465b be43 6a2c 3443
000000a0: edde 5442 2e77 d741 5c02 1243 077f c642
000000b0: 2cf5 0743 be1a 8842 5d72 c142 f18b 1143
000000c0: 83db 2c43 6d54 a442 9b68 a342 10e8 8e43
000000d0: 1d29 5343 3898 a243 9d8b 2a43 5206 b741
000000e0: a6a7 0543 3731 0342 0730 8a42 9c18 bb42
000000f0: 46c0 4043 0114 8d42 1ed3 4643 73ae ff42
00000100: 425c 2642 f857 6643 4c47 9442 ad6f be42
00000110: 21b4 8541 ffd4 0341 e409 3a43 2c61 2242
00000120: b0f9 4343 4d5e 4042 15df 9f42 7895 2042
00000130: 5645 4f42 5701 d542 97f9 fa42 a179 6842
00000140: d127 7e42 65ab 6e42 6ae1 e441 2cdc 4542
00000150: 647b c042 b333 1043 2d30 e940 0b9e 8443
00000160: 34ea ad41 cd3b 3842 d6dd 7d41 62a7 4142
00000170: 4455 5442 5ebd b642 6e20 6f41 cd58 9c43
00000180: e302 0d41 937a 1143 c744 d142 eb40 c940
00000190: abc0 7742 0665 2b43 4d8c 5642 71c3 3f43
000001a0: eb35 5f43 6dfd 8242 a7ed f042 c4b9 5542
000001b0: 8297 9c42 e250 1342 fa63 1343 a45c 1c43
000001c0: 97ff cb41 64c6 ea42 11de 2142 0099 8642
000001d0: 8f07 4942 0839 9943 7feb 0843 b4fe bd41
000001e0: 3afa bc42 fc46 6a42 5f9d 2543 3583 ab42
000001f0: 4084 af42 0a2e 8042 593c 1e42 bdd3 9e41
00000200: 618b 1343 636f 9742 1ca6 8440 d052 9942
00000210: ddd6 af41 db40 5f41 9a9a 5e42 196e a243
00000220: 1f5b 5742 f4a0 5842 03a7 3a42 f7bc bc42
00000230: 0fb3 5442 b5e9 b541 6973 8343 5724 fb42
00000240: 2d8d 5a41 6201 3b42 c8b7 8041 c3d3 9642
00000250: 94fd 4a42 78d0 a843 4d42 1d43 e698 b842
00000260: 80f2 7642 b633 0143 9b18 1342 6345 7d42
00000270: 2561 0743 ea3f 0243 0462 eb41 9ef7 2643
00000280: f62e 5242 803f 6a42 6879 d942 39fc 2743
00000290: edbb cb42 6c7b b142 aa70 cf42 a95a ce42
000002a0: 0b4d ec42 e34d ef41 b252 8541 6287 c041
000002b0: a0a5 a042 4628 7142 632a d142 153a 9942
000002c0: 6f64 0342 0a8c 7242 2e10 8c43 346d a842
000002d0: 0a83 7c42 618e 8c42 e98d fc41 5ecb 7b43
000002e0: ed92 8b42 c896 4b41 94b8 2043 9149 7142
000002f0: 8234 8841 60f2 ab42 3d96 9142 38ab 6b42
00000300: b1c0 2243 af22 2d43 8fee c141 9af0 3443
00000310: 0400 ad42 1a9d d442 434f 9742 d761 ce42
00000320: e1a9 5f42 7dc3 3942 346f 5a42 1f53 de42
00000330: 3720 3243 dd01 fe40 3d3b 6c42 4b58 4a43
00000340: 8365 1c43 a62d 4543 4694 e242 664e c442
00000350: 6603 3843 0513 de42 b95a 3a41 d5a9 0342
00000360: a915 6443 fc32 b042 2985 0242 32f1 a042
00000370: 6db3 3342 f0ab 0c42 c8d6 ab43 2bcf 4b43
00000380: b24c 7042 c4a6 d242 7a04 a342 eb42 ba42
00000390: e19a b141 7380 8142 682c 7542 895c a442
000003a0: 6a1c c742 d0cc 2b43 2aea 0842 2b20 f441
000003b0: f9ac 2f42 55dd 7842 daa4 ac42 9e9a ba43
000003c0: bb6b 1243 31bd a342 edef ce43 9caa f041
000003d0: 8875 ba42 abb2 8d41 61d7 2143 dafb cd43
000003e0: 44ff 0e42 7f74 8243 5eaf 7b42 a0d7 d542
000003f0: a22f 4142 623c 5542 d0b3 7842 defe 0e42

encoder.4.weight f4 [128, 256]
-0.022949245 -0.016961217 0.049839042 -0.091366015 0.0746646 -0.017800478 0.0023602664 0.010190347
-0.04788166 0.04990451 0.06418952 -0.05232227 0.040298376 -0.011967406 -0.093970776 -0.004678323
0.024080537 0.057812985 -0.030050898 -0.021114267 -0.098609425 -0.020602416 0.057715937 -0.0866373
-0.03122434 -0.0116302995 -0.0034296098 0.04246284 0.044401962 -0.059842408 -0.07329497 0.017969713
-0.018685317 -0.047426246 0.015962342 0.03694351 -0.028637918 -0.045300968 -0.07185114 0.07853717
-0.035115276 -0.04498133 -0.04500658 -0.0143295275 0.035423066 0.018218143 -0.010276906 -0.04022753
0.004317672 0.022444658 -0.023944044 -0.007403149 0.009248211 -0.10644489 0.042088106 0.03762291
-0.04298507 -0.011307722 0.014796845 0.029403012 0.023769367 0.02388808 -0.029039381 -0.03803358
-0.07218368 -0.008247062 -0.04916414 -0.058758702 -0.03552991 -0.03399379 -0.034772262 0.057047848
0.032132 -0.038374696 0.008447784 0.017893506 -0.026007852 -0.0973062 0.0023061412 -0.012016706
-0.090413295 0.045164872 -0.06505138 -0.047160514 -0.061354 0.00031810798 0.07435944 -0.08762066
0.035022747 -0.04713638 0.0024179572 -0.012399178 -0.022216287 -0.037112463 0.0038410104 -0.009204982
0.023358833 0.027320657 0.015852151 -0.019423796 -0.05360525 0.039064117 -0.027611386 -0.11290339
-0.03685859 0.00550425 -0.07849049 -0.021935036 0.02272214 -0.037217844 0.032516044 -0.02985922
-0.039808065 -0.08608482 -0.0054714303 0.04890634 -0.036017373 -0.01750053 -0.0412357 0.014969068
0.0071657756 -0.025854234 -0.024280084 -0.09075506 0.01925393 -0.042054493 -0.010787386 -0.03726758
-0.10070977 0.014015686 0.023215052 -0.013573528 0.029658169 0.03643065 -0.035641752 -0.044888254
-0.053863626 -0.03615903 -0.0014779948 0.08319662 0.014419202 0.057356242 0.022716578 0.03470886
-0.043294936 -0.025729446 -0.0044868235 -0.04636136 -0.043280188 -0.08380807 0.01926905 -0.062655814
0.083657175 0.037743498 -0.00505777 -0.018467885 0.09223498 -0.09498559 -0.010793423 -0.009637473
-0.004626369 0.03650414 -0.025439855 -0.1002964 0.01561863 -0.063960336 0.007931714 0.0072262203
0.02317272 -0.01707727 0.025147298 -0.062360875 -0.013328431 -0.08866723 0.043603357 0.011375877
-0.10144471 -0.0055917203 -0.0105421515 -0.1155618 -0.043482028 -0.017678518 -0.05258774 -0.12215271
-0.051127974 0.03841336 0.019656543 0.008469524 0.039301075 -0.0208278 0.04943871 0.05660363
-0.037557412 0.06919589 0.07799916 -0.047576796 -0.08809316 -0.09274906 -0.0131608015 -0.037759565
0.047257297 0.035188027 0.012840598 -0.030083535 0.05833667 -0.012264862 0.019320333 -0.006130201
-0.07114298 -0.07707787 -0.09020871 -0.026449097 -0.0116578825 0.005008775 0.010198964 -0.0018474428
-0.012371022 -0.068457656 -0.012331559 0.054647487 -0.023605919 -0.0030096732 -0.0074748485 -0.089757435
-0.050782748 -0.041099854 0.025527969 0.062817134 -0.023237163 0.0073516816 0.019763341 0.019065663
-0.07858415 0.020024246 0.015253247 -0.03438616 0.0496497 -0.047720283 -0.019790264 -0.08187426
0.04693269 -0.06391832 0.033815093 0.047780044 -0.041986417 0.07084469 -0.019076575 0.02000467
0.028206307 -0.06319486 -0.0029624517 0.02988116 -0.07056929 0.019255003 0.008270832 -0.06478431
00000000: 0e00 bcbc 40f2 8abc 0624 4c3d 1b1e bbbd
00000010: c1e9 983d 4fd2 91bc b3ae 1a3b 6af5 263c
00000020: 8f1f 44bd ac68 4c3d cc75 833d e04f 56bd
00000030: e90f 253d f012 44bc c073 c0bd 9e4c 99bb
00000040: 8c44 c53c 4fcd 6c3d 4d2d f6bc d4f7 acbc
00000050: bdf3 c9bd 66c6 a8bc 8c67 6c3d e66e b1bd
00000060: 30ca ffbc 038d 3ebc 4ec3 60bb 84ed 2d3d
00000070: d5de 353d 501d 75bd ac1b 96bd 3835 933c
00000080: f311 99bc 0642 42bd 75c3 823c 1452 173d
00000090: 119a eabc 828d 39bd b126 93bd 19d8 a03d
000000a0: 09d5 0fbd 583e 38bd d258 38bd 65c6 6abc
000000b0: c717 113d 373e 953c 7860 28bc 9fc5 24bd
000000c0: 427b 8d3b dcdd b73c 4d26 c4bc 1d96 f2bb
000000d0: cf85 173c c7ff d9bd 9464 2c3d 7b1a 1a3d
000000e0: 1d11 30bd 0644 39bc 776e 723c 96de f03c
000000f0: fab7 c23c efb0 c33c ffe3 edbc 19c9 1bbd
00000100: 0ad5 93bd af1e 07bc 5660 49bd f7ac 70bd
00000110: d087 11bd 133d 0bbd 5c6d 0ebd 01ab 693d
00000120: d89c 033d c92e 1dbd 9368 0a3c 6795 923c
00000130: 6b0e d5bc 7948 c7bd a122 173b b8e1 44bc
00000140: 9b2a b9bd cdfe 383d a839 85bd 622b 41bd
00000150: 554e 7bbd bbc7 a639 c349 983d 7672 b3bd
00000160: 0374 0f3d 1412 41bd 9776 1e3b ec25 4bbc
00000170: eefe b5bc 3d03 18bd 76b9 7b3b 7ed0 16bc
00000180: 065b bf3c 92cf df3c 5fdc 813c a71e 9fbc
00000190: 2e91 5bbd b201 203d 4631 e2bc e439 e7bd
000001a0: 08f9 16bd ff5c b43b 9fbf a0bd 1bb1 b3bc
000001b0: c823 ba3c bd71 18bd 8b2f 053d 539b f4bc
000001c0: c80d 23bd 3d4d b0bd af49 b3bb 0452 483d
000001d0: f486 13bd 465d 8fbc c4e6 28bd d240 753c
000001e0: e2ce ea3b 42cc d3bc 07e7 c6bc cadd b9bd
000001f0: 6bba 9d3c 5541 2cbd 94bd 30bc e4a5 18bd
00000200: ed40 cebd 0ca2 653c 7e2d be3c 8163 5ebc
00000210: b0f5 f23c 4e38 153d 16fd 11bd bfdc 37bd
00000220: 1ba0 5cbd 7e1b 14bd 47b9 c1ba fd62 aa3d
00000230: 843e 6c3c 61ee 6a3d 1e18 ba3c e12a 0e3d
00000240: 0856 31bd 8fc6 d2bc 3406 93bb 69e5 3dbd
00000250: 9146 31bd 91a3 abbd 20da 9d3c b151 80bd
00000260: 7454 ab3d ed98 1a3d a6bb a5bb f649 97bc
00000270: b1e5 bc3d ce87 c2bd e6d6 30bc 7ee6 1dbc
00000280: cc98 97bb 5d85 153d 3e67 d0bc 3368 cdbd
00000290: 48e5 7f3c a3fd 82bd 05f4 013c eec9 ec3b
000002a0: b7d4 bd3c a2e5 8bbc b501 ce3c 1e6e 7fbd
000002b0: 7e5f 5abc 2a97 b5bd 6f99 323d e361 3a3c
000002c0: 3ec2 cfbd c03a b7bb fdb8 2cbc aaab ecbd
000002d0: 361a 32bd 8ad2 90bc 3e66 57bd 332b fabd
000002e0: 916b 51bd 5457 1d3d c206 a13c c2c3 0a3c
000002f0: 2afa 203d 109f aabc 3f80 4a3d 35d9 673d
00000300: cdd5 19bd 93b6 8d3d 06be 9f3d e3df 42bd
00000310: 306a b4bd 38f3 bdbd 67a0 57bc c6a9 1abd
00000320: de90 413d 5221 103d 5f61 523c bf71 f6bc
00000330: 6ff2 6e3d 8ff2 48bc ad45 9e3c dadf c8bb
00000340: 69b3 91bd 01db 9dbd 58bf b8bd c7ab d8bc
00000350: b400 3fbc a620 a43b 8e19 273c e525 f2ba
00000360: d4af 4abc 8733 8cbd 4f0a 4abc 0bd6 5f3d
00000370: 3361 c1bc f03d 45bb 93ef f4bb bfd2 b7bd
00000380: 9201 50bd 5258 28bd 0820 d13c 45a6 803d
00000390: dd5b bebc 60e6 f03b bbe6 a13c 982f 9c3c
000003a0: baf0 a0bd e309 a43c c1e8 793c 81d8 0cbd
000003b0: 7c5d 4b3d 5876 43bd 311f a2bc b1ad a7bd
000003c0: 7e3c 403d 9ce7 82bd b281 0a3d 02b5 433d
000003d0: f3f9 2bbd 0517 913d 7a46 9cbc d5e0 a33c
000003e0: ea10 e73c 4f6c 81bd b125 42bb 56c9 f43c
000003f0: a286 90bd abbc 9d3c 6282 073c a3ad 84bd

encoder.4.bias f4 [128]
0.06051803 -0.011031863 -0.045188975 -0.047730926 0.027856292 0.0027124006 -0.05368336 -0.045533597
0.0063010356 0.0039308243 -0.013033524 0.0040834215 -0.03560782 -0.044733547 -0.011923337 -0.021467485
0.00080616155 -0.024771145 0.025816066 0.03767418 -0.06573222 -0.04997932 0.06459295 0.03316515
-0.009159732 0.0365323 0.03729164 -0.017003026 0.049976856 -0.050419293 -0.0253002 -0.06269677
0.055789504 0.053727094 -0.0093728155 0.002007375 -0.044471275 -0.05389599 -0.0064240634 0.030406464
0.0033296088 -0.051245034 -9.87573e-06 -0.064940825 0.02737599 0.06841841 -0.0013201782 -0.064771265
0.05055385 -0.043968536 0.0405764 0.021243837 -0.038560294 0.043948207 0.040229846 -0.05138397
-0.055248532 0.020961583 0.05610793 0.048662376 -0.016715275 -0.01342146 0.05084104 -0.019927235
0.049634285 0.016171347 -0.03862845 -0.064161986 -0.032387603 0.0453985 -0.0489587 -5.8151676e-05
-0.025422582 -0.041415267 0.09192955 -0.014935692 -0.008945115 0.021926988 -0.05109765 -0.015582469
-0.06414245 -0.032248855 -0.059856627 0.008351271 0.06251911 0.033508472 0.05488015 0.0464596
0.060151152 0.054219704 -0.07792751 0.039632406 0.039111335 0.08732399 -0.041438464 -0.057812054
0.050097335 -0.024555564 -0.0020262671 0.04879245 -0.06543889 0.032480653 -0.061266903 0.062186085
0.01540107 -0.042610016 -0.040257424 -0.044887803 -0.018450001 0.05395332 -0.040164243 -0.029430043
-0.030874483 0.0445612 0.043820437 0.00805512 -0.03705592 -0.023087675 -0.06148588 0.016159726
0.015249051 0.05425519 0.030534644 0.017331824 0.007418796 0.047786072 -0.050048064 0.060685612
00000000: c1e1 773d fdbe 34bc 1318 39bd 8181 43bd
00000010: e132 e43c 88c2 313b 15e3 5bbd 7081 3abd
00000020: eb78 ce3b 25ce 803b 908a 55bc 39ce 853b
00000030: 81d9 11bd 863a 37bd 1a5a 43bc 94dc afbc
00000040: 9654 533a dbec cabc 377c d33c 3e50 1a3d
00000050: 9d9e 86bd 1eb7 4cbd 4f49 843d 2ed8 073d
00000060: b312 16bc e5a2 153d 1ebf 183d ee49 8bbc
00000070: 88b4 4c3d 7684 4ebd 5d42 cfbc 2a67 80bd
00000080: 8983 643d f110 5c3d 7090 19bc 2a8e 033b
00000090: 8327 36bd 0bc2 5cbd f380 d2bb fa16 f93c
000000a0: 9135 5a3b 50e6 51bd f0af 25b7 b2ff 84bd
000000b0: 9d43 e03c f41e 8c3d d409 adba cca6 84bd
000000c0: 8e11 4f3d 5a18 34bd 7033 263d 8e07 ae3c
000000d0: 66f1 1dbd 0903 343d 0dc8 243d ff77 52bd
000000e0: 494c 62bd a0b7 ab3c 6ed1 653d 3352 473d
000000f0: 79ee 88bc afe5 5bbc b23e 503d 713e a3bc
00000100: 524d 4b3d c679 843c de38 1ebd 5c67 83bd
00000110: dda8 04bd c7f3 393d eb88 48bd e3e7 73b8
00000120: 0543 d0bc 0ea3 29bd 8f45 bc3d d5b4 74bc
00000130: 888e 12bc 3aa0 b33c c54b 51bd 9d4d 7fbc
00000140: 1e5d 83bd 6017 04bd 392c 75bd c5d3 083c
00000150: 050a 803d 2e40 093d 02ca 603d 6c4c 3e3d
00000160: 0e61 763d 7b15 5e3d 7598 9fbd 9755 223d
00000170: 3533 203d ecd6 b23d 61bb 29bd 55cc 6cbd
00000180: dd32 4d3d c028 c9bc 1fcb 04bb 98da 473d
00000190: d304 86bd 6f0a 053d 01f3 7abd d6b6 7e3d
000001a0: c554 7c3c d787 2ebd f8e4 24bd 46dc 37bd
000001b0: 7524 97bc 28fe 5c3d 4383 24bd 4617 f1bc
000001c0: 7cec fcbc ce85 363d 0f7d 333d 9ff9 033c
000001d0: f3c7 17bd 5d22 bdbc 9ed8 7bbd 6761 843c
000001e0: 28d7 793c b13a 5e3d ca23 fa3c 78fb 8d3c
000001f0: 5f19 f33b 54bb 433d 33ff 4cbd 7a91 783d

encoder.5.weight f4 [128]
1.0314493 0.97133726 0.9303135 1.001248 0.98177254 0.97922105 0.9625827 1.0100368
1.0374061 0.9770146 1.0339514 0.95921755 0.9594652 1.0071651 1.0241283 1.0083036
1.01471 0.9795484 0.9845101 1.0055071 1.0344839 1.0145622 0.9567645 0.97231066
0.9540579 1.0189114 0.9738395 0.9496158 1.0027951 0.997136 0.9989804 0.9816194
1.0195687 0.9473349 0.9492237 0.9761763 0.99097043 1.0594625 1.0210173 1.0510066
0.9583401 1.0333085 0.99822503 1.0056595 0.9959476 1.0128365 0.9497938 1.029084
1.0023286 1.0592741 1.0205295 1.0595642 1.0325447 0.9337688 0.98225206 0.9424996
1.0109521 0.95732063 0.997132 1.009291 0.99310374 1.0493555 0.9664678 1.0280073
1.0260226 0.98942786 0.9743771 1.0066581 0.9987653 1.1023389 0.98746884 0.9982613
1.0226145 1.0012071 1.0248357 0.9818367 0.91319567 1.0334219 1.0271143 0.9144786
1.0194945 0.9690408 0.9393987 0.98616844 1.0112538 1.015064 0.98336387 1.0332475
1.0555153 1.015805 1.0302002 1.0183563 1.010543 1.0499997 1.0576946 0.98562396
0.9461806 0.94353 0.96757066 0.96667147 0.9738631 1.0250143 1.0127232 1.0211529
1.0215596 0.95903766 0.93636763 1.0448384 1.0166754 0.9830537 1.0034333 1.018207
1.0913539 1.036706 0.9876521 1.00976 0.94693387 0.9845838 1.0207144 1.0341905
0.9451084 0.92913866 1.0236709 1.080436 1.0001822 0.9985543 1.0133393 1.0482413
00000000: 8806 843f 8fa9 783f 0729 6e3f e528 803f
00000010: 7255 7b3f 3bae 7a3f d26b 763f e348 813f
00000020: b9c9 843f a11d 7a3f 8558 843f 488f 753f
00000030: 839f 753f c9ea 803f a316 833f 1810 813f
00000040: 04e2 813f afc3 7a3f db08 7c3f 75b4 803f
00000050: f869 843f 2ddd 813f 85ee 743f 5ae9 783f
00000060: 233d 743f b06b 823f 8c4d 793f 051a 733f
00000070: 975b 803f 4e44 7f3f 2ebd 7f3f 694b 7b3f
00000080: 3a81 823f 8a84 723f 5300 733f b1e6 793f
00000090: 3db0 7d3f 789c 873f b2b0 823f 6287 863f
000000a0: c755 753f 7443 843f ad8b 7f3f 73b9 803f
000000b0: 6cf6 7e3f a0a4 813f b025 733f 06b9 833f
000000c0: 4e4c 803f 4b96 873f b6a0 823f cd9f 873f
000000d0: 6d2a 843f 790b 6f3f df74 7b3f a747 713f
000000e0: e166 813f f712 753f 0b44 7f3f 7330 813f
000000f0: 0c3c 7e3f 4851 863f 6f6a 773f be95 833f
00000100: b554 833f 254b 7d3f c770 793f 2cda 803f
00000110: 15af 7f3f 7119 8d3f c2ca 7c3f 0d8e 7f3f
00000120: 08e5 823f 8e27 803f d12d 833f a659 7b3f
00000130: 31c7 693f 2b47 843f 7b78 833f 451b 6a3f
00000140: cc7e 823f 0f13 783f 6f7c 703f 8975 7c3f
00000150: c470 813f 9eed 813f bcbd 7b3f 7441 843f
00000160: 201b 873f e605 823f 9add 833f 8059 823f
00000170: 7959 813f 6466 863f 8962 873f da51 7c3f
00000180: e438 723f 2f8b 713f b6b2 773f c877 773f
00000190: 184f 793f ab33 833f eaa0 813f 23b5 823f
000001a0: 77c2 823f 7e83 753f cab5 6f3f 44bd 853f
000001b0: 6b22 823f 68a9 7b3f 8170 803f 9b54 823f
000001c0: 7cb1 8b3f c8b2 843f c5d6 7c3f d13f 813f
000001d0: 426a 723f af0d 7c3f c5a6 823f 5b60 843f
000001e0: a0f2 713f 08dc 6d3f a607 833f ba4b 8a3f
000001f0: f805 803f 41a1 7f3f 1ab5 813f c52c 863f
