best_lstm_model.pth (torch, 218063 bytes, 11 tensors)

lstm.weight_ih_l0 f4 [256, 4]
0	0x3dcb9492	0.09940447
1	0x3d0ebf3c	0.034850344
2	0xbe1934b3	-0.1496151
3	0x3e12175f	0.14266728
4	0x3d19d663	0.03755797
5	0xbc1964a6	-0.009362375
6	0xbdbf5d67	-0.09343987
7	0x3d7064d8	0.058689922
8	0x3dcceaed	0.10005746
9	0xbdbf9cc6	-0.09356074
10	0x3d5b08dc	0.053475246
11	0xbd8220c5	-0.063539065
12	0x3e164e11	0.14678217
13	0xbd08e1ca	-0.033418454
14	0x3d0ca4ee	0.034336977
15	0xbdf149b3	-0.11781635
16	0x3d43c30a	0.047793426
17	0x3d31250d	0.043248225
18	0xbdec43a7	-0.11536341
19	0xbe33b058	-0.17547739
20	0xbe3c4c08	-0.18388379
21	0xbe223b07	-0.1584283
22	0xbe439d21	-0.19102909
23	0x3cc59f3d	0.024123782
24	0xbd5d1fa0	-0.053985238
25	0xbd9c677f	-0.07636928
26	0x3ba204d4	0.004944423
27	0x3ace9832	0.001576191
28	0xbc3b479b	-0.011430646
29	0xbe490106	-0.19629297
30	0x3d20e445	0.039280195
31	0xbe09e961	-0.13467933
32	0x3e40d904	0.18832785
33	0xbd256d1e	-0.040387265
34	0xbd3ada1b	-0.045618158
35	0x3c4d1887	0.012518055
36	0xbe83c549	-0.25736454
37	0x3d549c8d	0.05190711
38	0x3ce2ed44	0.027701028
39	0x3d949c13	0.07256331
40	0x3db17441	0.08664752
41	0xbda7b37b	-0.0818853
42	0xbd970bfc	-0.07375333
43	0xbc81f7ff	-0.015865324
44	0x3d8a7786	0.067610785
45	0xba2fbd5d	-0.00067039375
46	0x3d8f2178	0.069888055
47	0xbea48a56	-0.32136792
48	0x3da8a644	0.08234838
49	0xbe07a67f	-0.13247107
50	0xbe2534dd	-0.16133447
51	0xbce38483	-0.027773147
52	0xbe89e55a	-0.26932794
53	0x3b0df33a	0.0021659867
54	0xbe072070	-0.13195968
55	0xbe1a629d	-0.1507668
56	0xbddc7b99	-0.10765762
57	0x3c720650	0.014772013
58	0xbcf7e30b	-0.03025963
59	0x3dc04db4	0.09389821
60	0x3c3aea16	0.0114083495
61	0xbd3faecd	-0.046797562
62	0xbe0a96b6	-0.13534054
63	0xbf138d0b	-0.5763709
64	0xbe1c03be	-0.15235803
65	0x3e7c221d	0.24622388
66	0xbe6955a8	-0.22786582
67	0xbe84c938	-0.25934768
68	0xbe1ee25c	-0.15516037
69	0xbe0da135	-0.13831027
70	0xbdaf9319	-0.085729785
71	0xbf04634d	-0.5171402
72	0xbda940d0	-0.08264315
73	0xbe469db0	-0.1939609
74	0xbe704599	-0.2346405
75	0xbe34d29b	-0.17658465
76	0xbeeafb09	-0.4589465
77	0xbd33c745	-0.04389121
78	0x3cf67c5d	0.030088598
79	0x3e190cba	0.14946261
80	0xbebe1dd0	-0.3713212
81	0xbe1957ce	-0.14974901
82	0xbc992c64	-0.018697925
83	0xbdce6666	-0.10078125
84	0x3cdd70e7	0.027031375
85	0x3e246945	0.16055782
86	0xbe0ef307	-0.13959895
87	0xbecfe440	-0.40603828
88	0xbdbc340e	-0.09189616
89	0xbcbb1ea9	-0.022841768
90	0x3d2bee16	0.041975103
91	0xbe0f9e63	-0.14025263
92	0x3d8fb031	0.07016028
93	0x3e09bbc7	0.13450538
94	0xbe3d8cab	-0.18510692
95	0xbf2753bd	-0.6536215
96	0x3e227258	0.15863931
97	0xbdeb3d98	-0.114863575
98	0xbdb5c009	-0.088745184
99	0xbe1d4cea	-0.15361372
100	0xbe996728	-0.29961514
101	0xbe1ec7d7	-0.1550592
102	0xbe25acbc	-0.16179174
103	0xbe6cf960	-0.23142004
104	0xbe084e73	-0.13311176
105	0x3c1d6813	0.009607333
106	0xbeba1a30	-0.36348104
107	0xbefbf62c	-0.49211252
108	0xbcd4bd84	-0.025969274
109	0xbe1127d5	-0.14175351
110	0x3dd0f76d	0.10203443
111	0xbd3f17e4	-0.046653643
112	0x3d26327b	0.040575486
113	0xbe54e9bf	-0.20792292
114	0xbe350ec2	-0.17681411
115	0xbe0892aa	-0.13337198
116	0x3cd8db5c	0.026471786
117	0xbd9477d0	-0.07249415
118	0xbd9a47ef	-0.075332515
119	0xbe37138f	-0.17878555
120	0x3d2fe117	0.04293927
121	0xbe6b6ff9	-0.22991933
122	0x3cfc1711	0.030772718
123	0xbe9d6fe3	-0.30749425
124	0x3c18a6f2	0.009317147
125	0xbdb6a760	-0.08918643
126	0xbcf751d9	-0.030190395
127	0xbdfbe54a	-0.12299593
128	0xbdb64c51	-0.08901275
129	0x3eb37eec	0.3505777
130	0xbbe72313	-0.0070537417
131	0x3eb484f9	0.352577
132	0xbd1772e9	-0.03697482
133	0x3d425d3a	0.04745219
134	0xbd7b83dd	-0.06140505
135	0xbda14938	-0.078752935
136	0xbd7a7d8f	-0.0611549
137	0xbe74c6f7	-0.23904024
138	0xbdd5cd00	-0.10439491
139	0xbe3c361d	-0.18380018
140	0x3e25ff9d	0.1621079
141	0xbe1cbd04	-0.15306479
142	0x3e0a1a6e	0.13486645
143	0xbe1e84d5	-0.15480359
144	0xbd9b2427	-0.07575255
145	0x3d8f4f58	0.069975555
146	0xbd9dbfb7	-0.07702582
147	0xbea61c39	-0.32443407
148	0x3bcf423c	0.0063250344
149	0xbe843fa2	-0.25829798
150	0xbdde0725	-0.108412065
151	0x3d8e72d4	0.069554955
152	0xbda06f1b	-0.07833692
153	0xbdecffd6	-0.11572234
154	0xbc421090	-0.011844769
155	0xbe75a748	-0.23989594
156	0x3e1dd8a4	0.15414673
157	0xbd4797c2	-0.048728712
158	0xbd5dd653	-0.054159474
159	0xbdcc4a0a	-0.09975059
160	0x3e739b6e	0.2378976
161	0x3d4c8924	0.049935475
162	0x3d80c5d1	0.062877305
163	0xbd3096dc	-0.04311262
164	0x3d5b6bcf	0.05356961
165	0x3c72338d	0.0147827985
166	0xbe805667	-0.2506592
167	0xbe63dfa8	-0.22253287
168	0xbd231965	-0.03981914
169	0xbd1105b5	-0.035405833
170	0xbe31a42a	-0.1734778
171	0xbd8986eb	-0.06715187
172	0xbc03ffe8	-0.008056618
173	0x3e71aeed	0.23601885
174	0xbe7f87e8	-0.24954188
175	0xbeb11f5c	-0.34594238
176	0xbdd204bd	-0.1025481
177	0x3d871ea6	0.065976426
178	0x3dea6753	0.11445489
179	0xbd5b1328	-0.053485066
180	0xbe975977	-0.29560444
181	0xbcf608c2	-0.030033473
182	0xbd780f2f	-0.060561355
183	0xbcc202a4	-0.0236829
184	0x3d894efe	0.0670452
185	0xbd7fe14f	-0.06247073
186	0xbc9bef82	-0.019035105
187	0xbe5e5bd2	-0.21714714
188	0xbe1c5a5c	-0.15268844
189	0xbd23cd0c	-0.03999047
190	0xbdd01257	-0.10159748
191	0x3cf3fec5	0.02978457
192	0x3d17812d	0.036988426
193	0x3e1939a7	0.14963399
194	0xbe934e5a	-0.28770715
195	0xbf1aa17d	-0.6040266
196	0xbda22710	-0.07917607
197	0x3d3aa4be	0.045567267
198	0x3c81ac3f	0.015829204
199	0x3b2e56b4	0.0026601972
200	0xbe18caee	-0.14921162
201	0x3e2156af	0.15755723
202	0x3ba454c0	0.005014986
203	0xbe6e3e6a	-0.23265997
204	0xbccd4523	-0.025057381
205	0x3c12f2bd	0.008969006
206	0xbe2235c9	-0.1584083
207	0xbf1369dc	-0.57583404
208	0xbe38b311	-0.18037058
209	0xbc861bd0	-0.016370684
210	0xbd932bf4	-0.07186118
211	0x3cdb2c5f	0.026754556
212	0xbe427bca	-0.18992534
213	0xbe325e93	-0.1741889
214	0xbe2fb26c	-0.17157906
215	0x3a011dfc	0.00049254275
216	0x3e1ee4ff	0.15517043
217	0xbd6976dc	-0.05699812
218	0x3d2aa56b	0.04166166
219	0xbd6e68ba	-0.058205344
220	0xbe371cae	-0.17882034
221	0x3db4fda6	0.08837442
222	0xbe461e8d	-0.19347592
223	0xbe0e2933	-0.13882904
224	0xbe308612	-0.17238644
225	0x3db00dda	0.08596392
226	0x3db44abf	0.08803319
227	0x3e9229f3	0.2854763
228	0xbeb9d228	-0.3629315
229	0xbe9e12fc	-0.3087386
230	0xbd96f9f8	-0.073718965
231	0xbdab4004	-0.083618194
232	0x3e0664f7	0.13124453
233	0x3d15bd5a	0.036557533
234	0xbe00659d	-0.12538762
235	0xbdcbf447	-0.099587016
236	0xbe32c591	-0.17458178
237	0xbd4356cd	-0.0476902
238	0xbe8ae59c	-0.27128303
239	0xbec9e6c9	-0.39433888
240	0xbe911ba2	-0.28341395
241	0xbe749ed9	-0.2388872
242	0xbe1bd434	-0.15217668
243	0xbde7710a	-0.11300857
244	0x3dc16b88	0.09444338
245	0xbde0ed3e	-0.1098275
246	0xbe73ffe5	-0.23828085
247	0xbec25c3d	-0.37960997
248	0xbdf7698f	-0.120806806
249	0x3aac21db	0.0013132648
250	0xbe7b0c94	-0.24516517
251	0xbdbfdd69	-0.093684025
252	0xbe1a36e6	-0.15060005
253	0xbe6c900e	-0.23101828
254	0xbe123551	-0.14278151
255	0xbe21429c	-0.15748066

lstm.weight_hh_l0 f4 [256, 64]
0	0x3d63d957	0.055627193
1	0xbbbcf0be	-0.0057660034
2	0x3cc07ded	0.023497546
3	0xbdbac853	-0.0912024
4	0xbcf04217	-0.02932839
5	0xbdc4371a	-0.09580822
6	0x3e30012c	0.17187947
7	0xbacea1d6	-0.0015764784
8	0xbc9d4e34	-0.01920233
9	0xbe629bfb	-0.22129814
10	0xbdaa8825	-0.08326749
11	0x3ce2add7	0.027670784
12	0x3b994541	0.004677445
13	0xbd81892f	-0.06324994
14	0x3e759bae	0.23985168
15	0xbd276850	-0.040870965
16	0x3ce7f8d5	0.028316895
17	0x3dc81070	0.0976876
18	0xbd98a00a	-0.074524
19	0x3e438247	0.19092666
20	0x3e3947fe	0.18093869
21	0xbdd8d04c	-0.105866045
22	0x3e42d851	0.1902783
23	0x3db29942	0.08720638
24	0xbadd1b96	-0.0016869183
25	0xbe0b704b	-0.13617055
26	0x3dd79eee	0.1052836
27	0xbcc1578f	-0.023601322
28	0xbd51f684	-0.051260486
29	0x3dd1aa51	0.102375634
30	0x3e0e4992	0.13895252
31	0x3d045d73	0.032315683
32	0xbd5dff3d	-0.054198492
33	0xbd81917a	-0.063265756
34	0xbdc389d1	-0.09547771
35	0xbdb42d75	-0.08797733
36	0xbe1b88ad	-0.15188856
37	0x3e6114ab	0.2198054
38	0x3d8daf47	0.06918197
39	0x3e4549f6	0.19266495
40	0x3d3c4c5b	0.045971256
41	0x3dd7ad32	0.10531081
42	0xbcb2055c	-0.021731071
43	0x3e324a8a	0.17411247
44	0x3e36ab5d	0.17838807
45	0x3ea4eaf9	0.3221052
46	0x3e16eccd	0.1473877
47	0x3d00b839	0.03142569
48	0x3c9f6b8c	0.019460462
49	0x3d84c972	0.06483735
50	0xbe61a2bb	-0.22034733
51	0x3ddf5f8a	0.109068945
52	0xbcc300a2	-0.023804013
53	0xbca335d4	-0.019923128
54	0xbe5eacfe	-0.21745679
55	0xbd50c74e	-0.05097132
56	0xbbcc7335	-0.0062393197
57	0xbe34731c	-0.17622036
58	0xbe45105b	-0.1924452
59	0xbe0e5e9e	-0.13903281
60	0x3d3b2705	0.04569151
61	0x3e0e2ec9	0.13885035
62	0x3e385d06	0.18004236
63	0x3c574f2b	0.013141434
64	0xbde68443	-0.11255696
65	0xbda14ed0	-0.078763604
66	0x3d25c573	0.040471505
67	0x3de04609	0.10950858
68	0xbdefd2d0	-0.11710131
69	0x3c388d76	0.011264196
70	0x3da56851	0.080765374
71	0x3a80c04c	0.0009822934
72	0xbca22e55	-0.019797483
73	0x3e085ac2	0.13315871
74	0x3c209a2e	0.009802384
75	0x3ddcbb80	0.1077795
76	0xbdcb2f09	-0.099210806
77	0x3db1f013	0.08688369
78	0xbdaec545	-0.0853372
79	0x3db6fbf7	0.08934777
80	0xbd0e5db3	-0.034757327
81	0x3ddf6ce1	0.10909439
82	0x3d1b8faf	0.037978824
83	0x3da09a91	0.07841981
84	0xbb41373d	-0.0029482387
85	0x3d209d78	0.039212674
86	0xbdacd477	-0.08438962
87	0xbdfdbd41	-0.12389613
88	0xbd1068e9	-0.0352563
89	0x3d1d4838	0.03839895
90	0x3cb81d4f	0.022474913
91	0x3c65951c	0.014012601
92	0xbd3b0d12	-0.04566676
93	0x3da26594	0.07929531
94	0x3dbf32d1	0.09335864
95	0x3c874515	0.016512433
96	0xbd97c869	-0.07411272
97	0xbe171e58	-0.14757669
98	0xbcdad279	-0.02671169
99	0x3d19ebfe	0.037578575
100	0x3dcd5567	0.10026055
101	0xbd6bb02f	-0.05754107
102	0x3da20ad1	0.07912219
103	0x3e36c492	0.17848423
104	0x3e52d812	0.20590237
105	0x3d439385	0.047748107
106	0xbe0d7db6	-0.13817486
107	0x3dfc2e83	0.12313559
108	0xbd2078b4	-0.03917761
109	0xbd375dff	-0.044767376
110	0x3e20b030	0.1569221
111	0xbd8b079a	-0.06788559
112	0x3c5c403a	0.013443047
113	0x3e072004	0.13195807
114	0xbd90d62a	-0.070720986
115	0xbdc4518c	-0.09585866
116	0x3d796a81	0.060892586
117	0xbd0cb0ed	-0.034348417
118	0xbd75399e	-0.0598694
119	0xbdfd6c36	-0.12374155
120	0xbd827ff7	-0.063720636
121	0xbc02a6ec	-0.007974368
122	0xbe060fb9	-0.13091935
123	0xbd996e75	-0.07491771
124	0x3d7498ce	0.05971604
125	0x3d71ae43	0.05900408
126	0xbd60e03b	-0.054901343
127	0x3d13482c	0.0359575
128	0x3c67f59b	0.014157678
129	0x3d9b3f7a	0.075804666
130	0xbdb1b8a9	-0.08677799
131	0x3da165b9	0.0788073
132	0x3e3dc634	0.1853264
133	0x3d1a4804	0.037666336
134	0xbe205217	-0.15656315
135	0x3d92e3ee	0.071723804
136	0x3d92b9ea	0.071643665
137	0x3e08d7d3	0.1336358
138	0x3d872536	0.06598894
139	0x3e38fb5c	0.18064636
140	0xbdb304f7	-0.08741181
141	0x3e288f0f	0.16460823
142	0xbe5a6116	-0.21326098
143	0xbd14684c	-0.036232278
144	0xbd91c9e5	-0.071185865
145	0x3cf2a014	0.029617347
146	0x3dc9b024	0.09848049
147	0xbd0164d0	-0.031590283
148	0xbdb9ff7d	-0.09081934
149	0xbbfa9e21	-0.007648245
150	0xbb96fa69	-0.004607488
151	0x3d5565aa	0.052098908
152	0x3dc74399	0.0972969
153	0xbde33b1f	-0.11095261
154	0x3e289a45	0.16465099
155	0xbd4bf9cf	-0.049798783
156	0x3ae95cfb	0.00178042
157	0xbcc40063	-0.023925966
158	0xbdf31629	-0.11869461
159	0xbe0632fe	-0.1310539
160	0x3d3a7337	0.045520034
161	0xbdcad68e	-0.09904204
162	0xbd143b0e	-0.03618913
163	0x3dda3b3d	0.1065583
164	0x3bf5d848	0.0075025894
165	0x3cf12aca	0.029439349
166	0xbbeb6d2e	-0.007184646
167	0x3e1614eb	0.14656417
168	0x3e5d5459	0.21614207
169	0xbdd85ae2	-0.105642095
170	0xbdb0e2eb	-0.08637031
171	0xbdd9f28c	-0.10641965
172	0xbdfdccab	-0.12392553
173	0xbda7c1c6	-0.08191256
174	0x3c979d5c	0.018507652
175	0x3cacf6f0	0.021113843
176	0xbd341cc3	-0.04397274
177	0xbe0b0a01	-0.13578035
178	0xba224c66	-0.0006191194
179	0x3dbe7ac3	0.09300759
180	0xbd9f2070	-0.07769859
181	0xbdbcac2e	-0.09212528
182	0xbd08b6dc	-0.033377513
183	0xbd927210	-0.07150662
184	0x3b1198be	0.0022216286
185	0x3dfb6c93	0.12276568
186	0x3d471e4a	0.04861287
187	0xbd9e1cb7	-0.07720321
188	0x3c2ea4cc	0.010659408
189	0x3e02c66b	0.12771003
190	0x3b9b8481	0.0047460203
191	0xba1b1afa	-0.00059168006
192	0x3db7dc5d	0.08977578
193	0x3d81127d	0.063023545
194	0x3c00f558	0.0078709945
195	0xbc5d2a89	-0.013498911
196	0xbe07cb26	-0.13261089
197	0x3c725bf9	0.014792436
198	0x3c6502b8	0.013977699
199	0xbe0b4c2f	-0.1360328
200	0x3dbad836	0.0912327
201	0xbe0d9602	-0.13826755
202	0x3db3ebec	0.08785233
203	0x3d5cfb56	0.05395063
204	0x3d998ed3	0.07497945
205	0xbda3dceb	-0.08001121
206	0x3d9003c3	0.070319675
207	0x3d2f690f	0.0428248
208	0x3c9e2b23	0.019307679
209	0x3d350040	0.04418969
210	0x3db276be	0.087140545
211	0x3d22af40	0.039717913
212	0x3d19660b	0.03745083
213	0x3d31b187	0.043382194
214	0x3d040c0c	0.03223805
215	0x3e236ad2	0.15958717
216	0xbd0bbfef	-0.03411859
217	0xbd293f06	-0.04131987
218	0x3d291a37	0.041284766
219	0xbd4eef78	-0.050521344
220	0x3d8ed2d3	0.06973805
221	0x3ca514c8	0.02015151
222	0xbd9a29b8	-0.075274885
223	0xbceef749	-0.02917065
224	0xbdab27fc	-0.08357236
225	0xbcf1205b	-0.029434374
226	0xbd394c0f	-0.04523855
227	0xbdd78fa3	-0.105254434
228	0xbc5472b6	-0.012966802
229	0xbcafe40b	-0.021471044
230	0xbbe749b8	-0.0070583485
231	0x3e2a1de5	0.16612966
232	0x3dbca701	0.09211541
233	0x3d84a241	0.0647626
234	0x3d09630c	0.033541724
235	0xbdbd0bf6	-0.09230797
236	0xbbff91a4	-0.007799344
237	0x3e33979a	0.175383
238	0xbd5068f7	-0.050881352
239	0xbd28fa04	-0.04125406
240	0x3dbe8ae0	0.09303832
241	0x3d3f6725	0.046729226
242	0xbdcf0341	-0.101080425
243	0x3e17c159	0.1481985
244	0xbd261335	-0.04054566
245	0xbdd4a6c2	-0.10383369
246	0xbd191110	-0.037369788
247	0x3ce6dfd9	0.02818291
248	0xbe18e315	-0.14930375
249	0x3c7949c1	0.015215338
250	0xbe0c8f26	-0.13726482
251	0x3d89bc02	0.06725313
252	0x3dc0c401	0.09412385
253	0x3df61a5a	0.12016745
254	0x3b04b82b	0.0020251374
255	0x3cbae031	0.02281198

lstm.bias_ih_l0 f4 [256]
0	0xbe317d06	-0.17332849
1	0xbd1df842	-0.038566835
2	0xbe4ab40a	-0.19795242
3	0x3da83dfb	0.08214947
4	0xbd61df76	-0.05514475
5	0xbe4d3b88	-0.2004224
6	0x3da29982	0.079394355
7	0xbd620b41	-0.055186514
8	0xbd5acc8a	-0.05341772
9	0x3e1bd5c5	0.15218265
10	0xbdff17a5	-0.12455682
11	0xbdaf6e81	-0.08565999
12	0xbdecbc13	-0.1155931
13	0xbe0585d3	-0.13039331
14	0xbe5560ec	-0.20837754
15	0x3d09cefa	0.033644654
16	0xbe5a0b16	-0.21293291
17	0xbe552837	-0.20816122
18	0xbe0ab7e2	-0.13546708
19	0xbdec581f	-0.11540245
20	0xbc523757	-0.012830577
21	0xbd79ab22	-0.06095422
22	0xbc33f23d	-0.010983047
23	0xbdfc1a1d	-0.12309668
24	0xbd85c02b	-0.06530794
25	0xbe3f678b	-0.18691842
26	0xbea32305	-0.31862655
27	0xbdd4e8d2	-0.103959695
28	0xbe3fa5e8	-0.18715632
29	0xbc3b988b	-0.011449943
30	0x3d6dd05e	0.058060043
31	0x3d85558f	0.0651046
32	0xbe54100d	-0.20709248
33	0x3d461a67	0.048365023
34	0x3ca59b98	0.020215794
35	0x3cdf7a29	0.02727993
36	0xbe306051	-0.17224242
37	0xbe3f1d89	-0.1866361
38	0xbdf201fe	-0.11816786
39	0xbddf4f1a	-0.10903759
40	0x3dcf819c	0.10132143
41	0xbe6f478a	-0.23367134
42	0xbde4f7e1	-0.11180092
43	0xbdc972bd	-0.09836338
44	0xbd10f2de	-0.035387866
45	0xbdad06e6	-0.084485814
46	0x3d4dc7d5	0.050239403
47	0x3cccac7f	0.024984596
48	0xbe78183e	-0.24227998
49	0xbdab83a7	-0.0837472
50	0xbd3dd4a9	-0.046345387
51	0xbd998a46	-0.07497077
52	0xbe64c2a6	-0.22339877
53	0xbe75badb	-0.23997061
54	0xbc5803db	-0.013184513
55	0xbd8085a0	-0.06275487
56	0xbce44127	-0.027863098
57	0xbdd78823	-0.10524013
58	0xbe0b7c7f	-0.1362171
59	0xbe667ddf	-0.22508954
60	0xbccc8443	-0.024965411
61	0xbe1c211e	-0.15247008
62	0xbe28d78e	-0.16488478
63	0xbe2bdc3e	-0.16783234
64	0xbe173650	-0.14766812
65	0x3d16c16a	0.036805548
66	0xbd9b0e0a	-0.07571037
67	0x3dfbfc59	0.12303991
68	0x3e1baece	0.15203401
69	0xbe2e458b	-0.17018716
70	0xbc5de2e3	-0.013542864
71	0xbcfe74d1	-0.031061562
72	0x3cb21ae0	0.02174133
73	0xbcd34dc9	-0.025793927
74	0xbde7b2a6	-0.11313371
75	0x3d6e2363	0.058139216
76	0xbce7184c	-0.028209828
77	0xbd0d420c	-0.034486815
78	0x3d3ab20e	0.045579962
79	0x3ea7e76a	0.32793742
80	0xbe9932db	-0.29921612
81	0x3db4f8ad	0.08836494
82	0xbdd5ba6b	-0.10435947
83	0x3b42cd40	0.002972439
84	0xbba897e3	-0.0051450594
85	0x3cb565e1	0.022143306
86	0x3db4c372	0.08826341
87	0xbe0414fe	-0.12898633
88	0x3c2123b7	0.009835175
89	0xbd8a964b	-0.06766947
90	0x3d24e820	0.040260434
91	0xbd2a0d10	-0.041516364
92	0xbe2914d0	-0.16511846
93	0xbc563700	-0.013074636
94	0xbe0ba252	-0.13636139
95	0xbbcac459	-0.0061879572
96	0xbe171ade	-0.14756343
97	0x3e28f243	0.16498666
98	0xbd8144b4	-0.06311932
99	0xbc6cae17	-0.014445803
100	0xbe0e0d5e	-0.13872287
101	0xbce12998	-0.027485654
102	0x3b43376d	0.0029787675
103	0x3cfeda72	0.031110022
104	0x3c26d874	0.010183442
105	0x3cb8607a	0.022506941
106	0x3cdc0e36	0.026862245
107	0xbdee3e77	-0.11633008
108	0x3dcc1a21	0.09965921
109	0x3de30289	0.11084468
110	0x3da6b498	0.08139914
111	0xba9bdfc4	-0.0011892249
112	0xbde0c681	-0.109753616
113	0xbe5711b4	-0.21002847
114	0x3cb8a3cf	0.022539048
115	0xbe0db19b	-0.13837282
116	0x3ada6717	0.0016662803
117	0x385ade9a	5.2182564e-05
118	0xbc313880	-0.010816693
119	0x3d667d4b	0.056271832
120	0xbdd9bad1	-0.106313355
121	0xbe0e4ce1	-0.13896514
122	0x3dc41ced	0.0957583
123	0xbc89b959	-0.016812013
124	0xbcd1c783	-0.02560783
125	0x3dfb1d5c	0.12261459
126	0xbd03e322	-0.032199033
127	0x3d6c032d	0.057620216
128	0xbd07af28	-0.033126026
129	0xbc1ebf3b	-0.009689148
130	0x3d9238e9	0.07139761
131	0xbd743fb6	-0.059631072
132	0xbd39b5ae	-0.04533928
133	0x3c655ec8	0.013999648
134	0x3d23ae75	0.039961297
135	0x3da9326f	0.082615726
136	0xbdace8dd	-0.08442853
137	0xbd8c0ff7	-0.068389826
138	0x3b8a46dc	0.004219873
139	0xbe05ad87	-0.13054477
140	0xbd569fc0	-0.052398443
141	0x3c3e336c	0.01160894
142	0x3d413a5b	0.047174793
143	0x3dad4ce3	0.084619306
144	0x3c7c090a	0.015383014
145	0x3c1a8a7a	0.009432429
146	0xbdee1c5e	-0.11626504
147	0x3cbc80aa	0.02301057
148	0x3e126203	0.14295201
149	0xbd5b3b84	-0.053523555
150	0x3dbe6833	0.09297218
151	0x3da114e4	0.07865313
152	0xbd6dd58f	-0.058064993
153	0x3db44f0c	0.088041395
154	0x3c00be1b	0.007857825
155	0x3dd6ed51	0.10494483
156	0xbd206e29	-0.039167557
157	0x3e258098	0.16162336
158	0xbcfcefd1	-0.030876072
159	0x3dd07a8f	0.10179626
160	0xbde63dc2	-0.11242248
161	0x3e03b8d2	0.12863472
162	0x3dce4c80	0.10073185
163	0xbe2678d5	-0.16257031
164	0x3d8cf71e	0.06883071
165	0x3ded03db	0.11573001
166	0xbd85e214	-0.065372616
167	0xbdcdac33	-0.1004261
168	0xbd87478c	-0.06605443
169	0xbcce3896	-0.025173467
170	0xbd98e762	-0.07466008
171	0x3cb90f93	0.022590434
172	0x3c157135	0.009121229
173	0x3e082ca9	0.13298286
174	0x3d0deea9	0.034651432
175	0xbd265c8f	-0.040615615
176	0xbdd0ba8c	-0.10191831
177	0x3d854f8b	0.06509312
178	0xbda8eb79	-0.08248038
179	0xbdcc4568	-0.09974176
180	0x3dc798ca	0.09745939
181	0x3d520d50	0.051282227
182	0xbc13b9e9	-0.009016492
183	0x3dc4056a	0.09571345
184	0xbcb34a18	-0.021885917
185	0xbde75487	-0.11295419
186	0x3ddc77e5	0.107650556
187	0x3da20585	0.07911209
188	0xbc9b01fa	-0.018921841
189	0xbd4fc648	-0.050726205
190	0xbd1d53a3	-0.03840984
191	0x3d341dcd	0.043973733
192	0xbdad4f83	-0.08462431
193	0xbe0e27a9	-0.13882317
194	0xbe4666cf	-0.19375156
195	0x3d5a2637	0.0532591
196	0xbe1ab69f	-0.15108727
197	0xbd877ccd	-0.06615601
198	0x3ddf90a4	0.1091626
199	0xbdd4fb7d	-0.1039953
200	0x3d7704f8	0.060307473
201	0x3dd23b61	0.10265232
202	0xbdc497bd	-0.09599254
203	0xbdd8879a	-0.10572739
204	0xbe147288	-0.14496815
205	0xbe8ad40d	-0.27114907
206	0xbdb7f627	-0.08982497
207	0x3d0dd0fe	0.03462314
208	0xbe12c12f	-0.14331506
209	0xbda803e8	-0.0820387
210	0xbd925423	-0.07144954
211	0x3d1e9870	0.038719594
212	0x3ddcb28b	0.10776242
213	0xb9aa4c88	-0.00032481947
214	0x3e08339d	0.13300939
215	0xbe0dfe54	-0.1386655
216	0xbd69987a	-0.05703018
217	0xbdf64dde	-0.12026571
218	0xbe2aa36b	-0.16663902
219	0x3d2f80ca	0.042847432
220	0xbd94dac0	-0.07268286
221	0xbd8bfed8	-0.06835717
222	0xbc7f41e6	-0.015579676
223	0xbdece4da	-0.115670875
224	0xbe645714	-0.22298843
225	0xbd3592cc	-0.04432945
226	0xbde232c4	-0.11044839
227	0x3d15925c	0.036516532
228	0xbdb39d5e	-0.0877025
229	0xbd0f936c	-0.0350527
230	0xbd9f8da1	-0.077906854
231	0xbce7f7eb	-0.028316459
232	0x3d79b111	0.06095988
233	0xbdb4a65d	-0.08820794
234	0xbe352193	-0.17688589
235	0xbe42fd82	-0.19042018
236	0x3c2acce3	0.010424825
237	0x3c28b615	0.010297318
238	0xbd8f3dac	-0.06994185
239	0x3da68b79	0.08132071
240	0xbd269adb	-0.040675025
241	0xbe1aa68f	-0.151026
242	0xbe1f3515	-0.15547593
243	0xbda9f881	-0.082993515
244	0xbdf90257	-0.121586494
245	0xbdef9d72	-0.11699952
246	0xbce1a57c	-0.02754473
247	0x3cc5a20d	0.024125123
248	0xbdcc0e05	-0.099636115
249	0xbe039e5f	-0.12853383
250	0xbe3bfc08	-0.18357861
251	0xbe44c64d	-0.1921627
252	0xbc8e485d	-0.01736849
253	0x3c1f47ad	0.009721679
254	0xbe5c9fa0	-0.21545267
255	0x3c4ab1a0	0.012371451

lstm.bias_hh_l0 f4 [256]
0	0xbe0041a8	-0.12525046
1	0xbe1451c1	-0.14484312
2	0x3bf3102b	0.007417699
3	0x3c8dc255	0.017304579
4	0xbd1402da	-0.036135532
5	0xbd57d3d0	-0.052692235
6	0x3d5bff48	0.053710252
7	0xbe3b0762	-0.18264535
8	0x3d5d2072	0.05398602
9	0x3e06c9a9	0.13162865
10	0xbd318099	-0.04333553
11	0xbd725d97	-0.059171285
12	0xbd6194fa	-0.055073716
13	0xbe0b6e42	-0.13616279
14	0xbdb88413	-0.09009566
15	0xbd917b00	-0.071035385
16	0xbc551791	-0.013006107
17	0xbe08540b	-0.1331331
18	0xbd616afb	-0.055033665
19	0xbd90fb1b	-0.070791446
20	0x3d890644	0.06690648
21	0xbe5265c1	-0.20546629
22	0xbcba0677	-0.02270816
23	0xbe2dee1e	-0.16985366
24	0x3cd38a34	0.025822736
25	0xbe0b016d	-0.13574763
26	0xbe4aa210	-0.19788384
27	0xbd01991a	-0.03164015
28	0xbb161ae8	-0.002290422
29	0xbe0a2826	-0.13491878
30	0xbddb8030	-0.10717809
31	0xbe151982	-0.14560512
32	0xbe210b19	-0.1572689
33	0xbe04049b	-0.12892382
34	0xbdbc7b25	-0.092031755
35	0x3dd0956f	0.10184752
36	0xbdf41e8d	-0.119198896
37	0xbd67492f	-0.056466278
38	0xbe0a7271	-0.13520218
39	0xbe19ecda	-0.15031758
40	0x3d4f22ad	0.05057018
41	0xbc8c9c05	-0.01716424
42	0xbd9c39d5	-0.07628218
43	0xbdc8886b	-0.09791645
44	0xbd2ad62a	-0.04170815
45	0x3c99353e	0.018702146
46	0x3c70b4a6	0.014691507
47	0xbb2adeff	-0.0026072857
48	0xbd794972	-0.06086106
49	0xbc8f9129	-0.017525272
50	0xbdd017a8	-0.10160762
51	0xbdc2d5bc	-0.09513423
52	0xbe740bdc	-0.23832649
53	0xbd990acd	-0.07472763
54	0xbcd9f086	-0.026603948
55	0xbdd0cd76	-0.101954386
56	0xbd2f6d70	-0.042828977
57	0xbe6b8f25	-0.23003824
58	0xbe22334f	-0.15839885
59	0xbd5dc78a	-0.054145373
60	0xbdec59e3	-0.11540582
61	0xbc150152	-0.009094553
62	0xbdf168a2	-0.11787535
63	0x3d88cf0f	0.06680118
64	0xbde3a65d	-0.11115716
65	0xbd975896	-0.07389943
66	0x3d4d3e38	0.050108165
67	0xbd855f4e	-0.065123186
68	0xbdc2479c	-0.09486315
69	0xbdb54cdf	-0.088525526
70	0x3dfdbe07	0.123897605
71	0xbb71397b	-0.0036807943
72	0xbd3dec7a	-0.0463681
73	0xbc04c48a	-0.008103499
74	0x3abbf350	0.001433948
75	0x3d315ce5	0.04330148
76	0x3ce62cc2	0.028097514
77	0xbded6144	-0.115908176
78	0xbda7596b	-0.08171352
79	0x3e4c8fe1	0.1997676
80	0xbe06978d	-0.1314375
81	0xbda6c20b	-0.081424795
82	0xbe03c2e6	-0.12867317
83	0x3e24d740	0.16097736
84	0x3dcf9a97	0.101369075
85	0xbd7267b1	-0.05918092
86	0x3e123c23	0.14280753
87	0xbd4e8dba	-0.05042813
88	0xbd9c1595	-0.07621304
89	0xbe21ad43	-0.1578875
90	0xbde78b34	-0.11305848
91	0xbd2555a0	-0.04036486
92	0xbce703c9	-0.028200047
93	0xbce661e1	-0.028122844
94	0x3b8187dd	0.0039529637
95	0xbd3a8249	-0.045534406
96	0xbd29321f	-0.041307565
97	0x3e13f0dd	0.14447351
98	0xbd9a147d	-0.07523439
99	0x3d160d29	0.036633644
100	0xbb40ffc1	-0.0029449316
101	0xbe11f114	-0.1425212
102	0x3c78ee0d	0.0151934745
103	0x3dc648c5	0.096818484
104	0x3e014019	0.12622108
105	0xbd95f026	-0.07321195
106	0xbd3e6391	-0.046481673
107	0x3c68f90f	0.014219536
108	0x3d6e99e3	0.058252227
109	0x3cf876b1	0.030330034
110	0x3cfc7be1	0.030820789
111	0x3d47d5a7	0.04878774
112	0x3d19608f	0.0374456
113	0xbe2f6585	-0.1712857
114	0xbd883cb3	-0.066522025
115	0xbe1b10ee	-0.15143177
116	0xbd2e4ed7	-0.042555656
117	0xbe13f910	-0.14450479
118	0x3e579ac4	0.21055132
119	0x3d56b6c7	0.052420404
120	0xbe025e9a	-0.127314
121	0xbdce3f60	-0.100706816
122	0xbc34a0c7	-0.01102466
123	0xbe2df8db	-0.16989462
124	0xbdb8ea27	-0.09029036
125	0xbb18298b	-0.002321812
126	0x3d283b50	0.04107219
127	0x3d0a3469	0.03374139
128	0x3d93f2d8	0.07224053
129	0xbe0092ad	-0.12555952
130	0xbd1f5f09	-0.038908992
131	0xbdc0c321	-0.09412218
132	0xbd29cfb4	-0.041457847
133	0x3dad482d	0.08461032
134	0x3d895df4	0.06707373
135	0xbb14abb5	-0.0022685353
136	0xbd8badef	-0.068202846
137	0xbd8e93a3	-0.06961753
138	0x3da26d8e	0.07931052
139	0x3ced714e	0.028984692
140	0xbb7fb652	-0.0039018583
141	0xbd05653b	-0.032567244
142	0x3d6b66c7	0.057471063
143	0xbdd560d7	-0.10418861
144	0x3ceeb556	0.029139202
145	0xbdab0c4f	-0.08351957
146	0xbc549055	-0.012973865
147	0xbbc1494d	-0.0058986307
148	0x3c37f514	0.011227865
149	0x3d6874dc	0.05675207
150	0x3e0c5aea	0.13706556
151	0xbc1ead4e	-0.009684874
152	0xbcda74eb	-0.026667079
153	0x3d9dad1a	0.07699032
154	0xbc8799c1	-0.016552808
155	0x3d63315f	0.055467006
156	0x3d771d73	0.06033082
157	0xbcfab25a	-0.030602623
158	0x3cdcc029	0.026947098
159	0xbc25b197	-0.0101131415
160	0xbcdecf4b	-0.027198454
161	0xbd3c57a1	-0.045982007
162	0xbd26d167	-0.040727045
163	0x3d652aff	0.055949207
164	0xbd4d69de	-0.05014979
165	0x3d1faa4b	0.038980763
166	0xbcbf52d7	-0.02335493
167	0x3d1764fc	0.03696154
168	0xbd04888d	-0.032356787
169	0x3dad60a4	0.08465698
170	0xbca8a9c7	-0.020588769
171	0x3d80b891	0.06285203
172	0x3da26603	0.079296134
173	0xbd8302eb	-0.06397041
174	0xbe044cf6	-0.12919983
175	0xbd756099	-0.059906576
176	0x3e03e650	0.12880826
177	0x3d9bfe4b	0.07616862
178	0xbaff1aba	-0.0019462921
179	0x3d4c1e71	0.04983372
180	0xbc72b533	-0.014813709
181	0xbde21933	-0.110399626
182	0x3e2272f1	0.15864159
183	0x3c226532	0.009911822
184	0x3d2d327d	0.042284478
185	0x3d27ee46	0.04099872
186	0xbd1d4a68	-0.038401037
187	0x3bf71c81	0.0075412397
188	0x3dfc6bb7	0.123252325
189	0x3c6a8bf0	0.01431559
190	0xbd0c6af1	-0.034281675
191	0x3de3cd04	0.11123088
192	0xbd5e8dbc	-0.054334387
193	0xbda08952	-0.07838692
194	0x3a2b47c6	0.00065338274
195	0x3d1c51cd	0.03816395
196	0x3cda1c6d	0.026624883
197	0xbd03d0d9	-0.032181595
198	0xbd9954e6	-0.07486896
199	0xbe2162c7	-0.15760337
200	0x3da2b767	0.079451375
201	0x3d225d2e	0.039639644
202	0x3d09f7cd	0.033683587
203	0x3d08e4cd	0.033421326
204	0xbe434ac8	-0.19071496
205	0xbda53635	-0.0806698
206	0xbd3aba55	-0.045587856
207	0xbdea9da4	-0.11455849
208	0xbdd4005e	-0.103516325
209	0xbe7edb12	-0.24888256
210	0xbacb68ef	-0.0015518944
211	0x3d8936ae	0.066998824
212	0x3cc70466	0.02429409
213	0xbd200bec	-0.03907387
214	0xbd1491ed	-0.03627198
215	0xbdbaef5b	-0.09127685
216	0xbdbfa1eb	-0.09357055
217	0x3c547bb5	0.012968947
218	0xbde851e2	-0.11343743
219	0xbd990a82	-0.07472707
220	0xbe4c4cb1	-0.1995113
221	0xbd052f7b	-0.032515984
222	0x3d79e310	0.06100756
223	0xbd4d80c2	-0.05017162
224	0xbd8a8d2c	-0.06765208
225	0xbde8b6e3	-0.11363008
226	0xbe3a6981	-0.18204309
227	0xbd369aec	-0.04458134
228	0xbe80d6a7	-0.25163767
229	0xbe003d38	-0.12523353
230	0xbe251520	-0.1612134
231	0xbc356a20	-0.011072665
232	0x3e2f2a6c	0.17106026
233	0xbdc4e6a7	-0.09614306
234	0xbd27c13e	-0.040955774
235	0xbe4321e8	-0.19055903
236	0xbd6f336f	-0.05839866
237	0xbe3d4214	-0.18482238
238	0x3d2b4069	0.041809473
239	0xbc9b7e83	-0.018981224
240	0xbe341dfa	-0.1758956
241	0xbe0fd65d	-0.14046617
242	0xbd988328	-0.07446891
243	0xbe7f1ac9	-0.24912561
244	0xbd015336	-0.031573497
245	0xbe8d6abd	-0.27620497
246	0x3d8af2d0	0.06784594
247	0x3d0ed79e	0.034873597
248	0xbe03cb23	-0.1287046
249	0xbd398377	-0.04529139
250	0x3d144319	0.0361968
251	0xbd8cf3cc	-0.06882438
252	0x3c85b19c	0.016320042
253	0xbde83ab1	-0.113393195
254	0xbe16bd99	-0.14720763
255	0x3d58c949	0.052926335

lstm.weight_ih_l1 f4 [256, 64]
0	0xbc913f22	-0.0177303
1	0xbcdbd37f	-0.026834248
2	0x3d76bbec	0.06023781
3	0x3dbc53ce	0.09195672
4	0xbddf3ce0	-0.10900283
5	0x3d1fc651	0.03900749
6	0x3d989b1a	0.07451458
7	0xbe2d7a0f	-0.16941093
8	0x3e214419	0.15748633
9	0x3dbde5bf	0.09272336
10	0xbe9092c4	-0.28236973
11	0xbd69d0e0	-0.057083964
12	0x3cf7e138	0.03025876
13	0xbe2a9372	-0.16657808
14	0x3c43c8a0	0.011949688
15	0x3dd7f960	0.105456114
16	0xbd01b766	-0.031669043
17	0x3d2283fc	0.03967665
18	0x3d664f6f	0.056228098
19	0x3ac928d8	0.0015347255
20	0xbc7fefb5	-0.015621115
21	0x3d98b588	0.07456499
22	0xbdc72d4e	-0.09725438
23	0x3e3d5b26	0.18491802
24	0x3c4c568b	0.012471805
25	0xbd23d70c	-0.040000007
26	0xbdd25630	-0.10270345
27	0xbd047ea2	-0.03234733
28	0x3dc85445	0.09781698
29	0xbe58bc63	-0.21165614
30	0x3e5346ca	0.20632473
31	0xbcbe670e	-0.0232425
32	0xbdd710a5	-0.105012216
33	0xbe52765d	-0.20552965
34	0xbe4dc587	-0.20094882
35	0x3eaaed71	0.33384278
36	0x3e4d91bf	0.20075129
37	0x3d889b70	0.06670272
38	0x3bd25619	0.006418955
39	0x3d158f50	0.036513627
40	0x3e2d6c8f	0.16935943
41	0xbd4a062e	-0.0493223
42	0xbdbbd94f	-0.09172308
43	0xbe40e08f	-0.18835662
44	0xbdcd87d9	-0.100356765
45	0x3b3725b2	0.0027946052
46	0x3e740fad	0.23834105
47	0xbcf75ab4	-0.030194618
48	0x3d5d39af	0.05401009
49	0x3dc9c647	0.098522715
50	0xbd64745a	-0.055775024
51	0x3e24baa2	0.1608682
52	0x3d5ffa2d	0.054681946
53	0x3de9e5a4	0.114207536
54	0xbe991e8b	-0.29906115
55	0xbd78c1fd	-0.060731877
56	0xbdd25766	-0.10270576
57	0xbe1269bf	-0.14298151
58	0xbe7309a9	-0.23734154
59	0xbdabe88b	-0.083939634
60	0xbdb71b7c	-0.08940789
61	0x3e899971	0.2687488
62	0xbdd66ab2	-0.10469569
63	0xbe22a112	-0.15881756
64	0xbd78e344	-0.060763612
65	0xbda6857c	-0.08130929
66	0xbe7b4a95	-0.2454017
67	0x3e372e07	0.17888652
68	0xbbd34f92	-0.0064486945
69	0x3d90ab6d	0.07063947
70	0x3c7d7ad1	0.015471176
71	0xbdcf97b3	-0.10136356
72	0x3ae938c9	0.0017793413
73	0x3d996086	0.074891135
74	0xbe3964cf	-0.18104862
75	0xbdcd4507	-0.100229315
76	0x3df2fbbb	0.1186442
77	0xbe184d4d	-0.14873238
78	0xbd029495	-0.03187998
79	0xbd6eab46	-0.058268808
80	0x3dc50b64	0.09621313
81	0xbd266131	-0.040620033
82	0x3e05a435	0.13050921
83	0xbd340088	-0.04394582
84	0xbc9d2c1a	-0.019186068
85	0x3c951c3f	0.018201945
86	0xbd368d14	-0.044568136
87	0x3d328198	0.04358062
88	0xbc7d1999	-0.0154479975
89	0xbe66d9a4	-0.22543961
90	0xbe013280	-0.1261692
91	0xbe0c4555	-0.13698323
92	0xbde4df68	-0.11175424
93	0x3db9aa5d	0.09065697
94	0xbd7ffca6	-0.062496804
95	0xbd659441	-0.05604959
96	0xbdcb2954	-0.09919992
97	0xbe01ee74	-0.12688619
98	0xbe1559ee	-0.14585087
99	0x3e0c2cde	0.1368899
100	0x3c86c034	0.016449071
101	0xbd769938	-0.060204715
102	0x3e2bc8a4	0.16775757
103	0x3c5b9872	0.013403045
104	0x3e1264a9	0.14296211
105	0x3d82b3ba	0.06381936
106	0x3d39d4a6	0.045368813
107	0xbdbc8741	-0.09205485
108	0x3c900d0c	0.017584346
109	0xbde3d0f6	-0.111238405
110	0x3c9f8a58	0.019475147
111	0xbca0076e	-0.019534793
112	0xbda87bde	-0.08226751
113	0x3c869590	0.016428739
114	0xbe49c786	-0.19705018
115	0x3dbbdb1f	0.091726534
116	0x3dcb2173	0.09918489
117	0x3e29c7a4	0.16580063
118	0xbd9d774c	-0.0768877
119	0xbdc3ffcc	-0.09570274
120	0xbdc29ca6	-0.095025346
121	0xbe40435a	-0.18775693
122	0xbe46ea5b	-0.19425337
123	0x3c9f129e	0.019418057
124	0xbe4ac3e4	-0.19801289
125	0x3e3ef3ec	0.18647736
126	0xbe102403	-0.14076237
127	0x3e0b4837	0.13601767
128	0x3e5f7bb4	0.21824533
129	0xbe1229ac	-0.14273709
130	0xbb60501b	-0.0034227434
131	0x3d0a0d86	0.033704303
132	0x3caee61f	0.021349965
133	0x3daab153	0.08334603
134	0xbd6c3493	-0.057667326
135	0xbd8c35a8	-0.068461716
136	0xbe1a1223	-0.15045981
137	0x3d9873aa	0.07443936
138	0x3ea1677b	0.31524262
139	0x3c9bbcee	0.019010987
140	0xbc75611f	-0.014976769
141	0x3c2d4ff6	0.010578146
142	0xbdc91306	-0.098180816
143	0xbd68404e	-0.05670195
144	0xbd9d5ce7	-0.07683735
145	0xbca7f328	-0.020501688
146	0x3cd70dd5	0.026251713
147	0xbe205e86	-0.15661058
148	0xbddf43be	-0.10901593
149	0xbe1e9206	-0.15485391
150	0xbdbf3cbd	-0.09337757
151	0xbe02d724	-0.12777382
152	0xbceec99e	-0.029148873
153	0xbdb7ffb8	-0.08984321
154	0x3d73c1d0	0.059511006
155	0x3e2efc71	0.17088486
156	0x3c84e5c4	0.016222842
157	0x3d30459a	0.043035127
158	0xbe73dfb6	-0.23815808
159	0xbd3169a6	-0.043313645
160	0xbebe74ab	-0.37198386
161	0x3dae1f7f	0.08502101
162	0x3e49d006	0.19708261
163	0xbeaec8db	-0.34137616
164	0xbd180821	-0.037117127
165	0xbe378d24	-0.17924935
166	0x3ca84ec6	0.020545375
167	0xbd915192	-0.070956364
168	0xbdd1ffcb	-0.10253867
169	0x3e17aa62	0.1481109
170	0x3dee403d	0.11633346
171	0x3ddd96b6	0.108197615
172	0x3c6a58c2	0.014303388
173	0xbe511dd4	-0.20421535
174	0xbe413265	-0.1886688
175	0x3e8ac809	0.2710574
176	0x3e477d94	0.19481498
177	0xbdd0af41	-0.10189677
178	0xbe75d0bd	-0.24005409
179	0xbcce4163	-0.025177663
180	0xbe2e6d75	-0.17033942
181	0x3df24088	0.118287146
182	0x3d072de0	0.033002734
183	0x3d0533ce	0.032520108
184	0xbdfc4003	-0.12316897
185	0xbe32e6ca	-0.17470852
186	0x3e28385b	0.16427748
187	0xbe2a7ec7	-0.16649924
188	0xbe57367f	-0.21016882
189	0x3d00de3b	0.031461935
190	0xbd74836b	-0.059695642
191	0x3dbd4b25	0.09242848
192	0x3e36c765	0.178495
193	0xbe0d6127	-0.13806592
194	0xbd8242d5	-0.063604034
195	0xbdeb0ecc	-0.11477432
196	0x3c6b567f	0.014363884
197	0x3c88b1a2	0.016686264
198	0xbd8f0b3f	-0.06984567
199	0xbc266c77	-0.010157696
200	0xbe04ecef	-0.12981008
201	0x3e4e2c62	0.20134118
202	0x3ca36799	0.01994686
203	0x3d9b5a28	0.07585555
204	0x3ca46d83	0.02007175
205	0x3e071267	0.13190614
206	0xbe18e3ee	-0.14930698
207	0x3d31408d	0.04327445
208	0xbe08508d	-0.13311978
209	0x3ca5031c	0.020143084
210	0x3e5b5a12	0.21421078
211	0xbe6c0c29	-0.23051514
212	0xbcbb2440	-0.022844434
213	0x3cadfaf2	0.021237824
214	0xbdf71c9a	-0.12066002
215	0xbdb7e385	-0.08978943
216	0x3da0d908	0.078538954
217	0xbdb37477	-0.08762448
218	0x3dc1ada5	0.09456948
219	0x3d85caee	0.065328464
220	0x3e08aa83	0.13346295
221	0xbe05b8cf	-0.1305878
222	0xbd8c0218	-0.06836337
223	0x3d79788a	0.06090597
224	0xbe39843c	-0.1811685
225	0xbcb12226	-0.021622729
226	0x3b07cb94	0.0020720707
227	0x3da3b6b6	0.07993834
228	0x3c7b8f0c	0.015353929
229	0xbe93acbf	-0.28842732
230	0x3d9e53f8	0.077308595
231	0x3d7efecb	0.06225471
232	0x3d7dd125	0.061967034
233	0x3df5af03	0.119962715
234	0x3bdb75fc	0.0066974144
235	0x3ced7024	0.028984137
236	0xbb53a80f	-0.0032296216
237	0x3c75466d	0.014970404
238	0xbd0f500b	-0.034988444
239	0x3e22d992	0.15903309
240	0x3a80a6ae	0.0009815299
241	0xbcdafcf9	-0.026731955
242	0xbd87207c	-0.06597993
243	0x3bd4865e	0.0064857444
244	0xbd91ac56	-0.071129486
245	0x3d39562b	0.04524819
246	0x3afc3b18	0.0019243686
247	0x3da1878e	0.07887183
248	0xbe5f1b7a	-0.21787825
249	0x3d51bde8	0.0512065
250	0x3d0c471a	0.034247495
251	0xbe3be271	-0.183481
252	0xbe39f1cb	-0.18158643
253	0xbcef89e7	-0.029240562
254	0x3d9ca557	0.076487236
255	0x3d2c3b7f	0.042048927

lstm.weight_hh_l1 f4 [256, 64]
0	0xbdf17ceb	-0.11791404
1	0x3c64e7c1	0.01397127
2	0xbc1c2e9c	-0.009532597
3	0x3d62fe35	0.055418212
4	0xbd464f54	-0.048415497
5	0x3deb755e	0.114969954
6	0x3d93fac3	0.072255634
7	0x3da5aaed	0.08089242
8	0x3e1443b4	0.14478952
9	0xbe08e5ba	-0.13368884
10	0xbd9ae237	-0.07562678
11	0x3dad63de	0.08466314
12	0xbd7c1897	-0.06154689
13	0x3d13566c	0.03597109
14	0xbb12f862	-0.002242588
15	0x3de953dc	0.11392948
16	0x3c62d65d	0.0138450535
17	0xbcebad87	-0.028769268
18	0xbd142114	-0.03616436
19	0xbca7bef2	-0.020476792
20	0x3c55709c	0.013027336
21	0xbcd1f860	-0.02563113
22	0xbc986e47	-0.018607272
23	0x3c270200	0.010193348
24	0x3de7ac86	0.11312203
25	0xbe009101	-0.12555315
26	0x3d1e69ec	0.038675234
27	0x3d8e335f	0.06943392
28	0x3e1b74c3	0.1518126
29	0x3e40d4ac	0.18831128
30	0x3dc79a0f	0.09746181
31	0xbd603598	-0.05473861
32	0xbdc87f60	-0.0978992
33	0xbe0609aa	-0.13089624
34	0xbddbbfd6	-0.10729949
35	0xbb3bebb5	-0.0028674428
36	0x3cbf59c4	0.023358233
37	0x3df721dc	0.12067005
38	0xbe094fe8	-0.13409388
39	0xba74e8bf	-0.0009342543
40	0xbd8d7dc7	-0.06908756
41	0xbdd1c168	-0.102419674
42	0xbd55e815	-0.052223284
43	0x3c8c6f30	0.017142862
44	0xbe04edfc	-0.12981409
45	0xb892f103	-7.0067144e-05
46	0xbd93d03b	-0.07217451
47	0x3c9fa08f	0.01948574
48	0x3dfc88e3	0.123307966
49	0xbdc5388c	-0.09629926
50	0xbe374975	-0.17899115
51	0x3e226b9b	0.1586136
52	0xbda57cc0	-0.08080435
53	0xbc828d56	-0.015936535
54	0xbd9de203	-0.07709124
55	0x3df3a5bb	0.11896845
56	0x3ddd8f72	0.10818376
57	0xbcee569a	-0.02909403
58	0xbd968495	-0.07349507
59	0xbe2357bf	-0.15951441
60	0xbb4119c3	-0.0029464818
61	0x3dc2267c	0.094799966
62	0xbdfa048f	-0.12207901
63	0xbdf0efa4	-0.11764458
64	0x3d92edec	0.07174286
65	0xbe2d1599	-0.1690277
66	0xbd22965e	-0.039694183
67	0xbd9b8a87	-0.07594781
68	0x3db26907	0.087114386
69	0xbd7d5883	-0.06185199
70	0x3e0670bf	0.13128947
71	0x3e01e9df	0.12686871
72	0xbd366d0b	-0.044537585
73	0x3bb93389	0.0056518954
74	0x3b97e60d	0.0046355785
75	0x3b069949	0.0020538142
76	0xbdb8d641	-0.09025241
77	0x3e2aa692	0.16665104
78	0x3da87f50	0.08227408
79	0x3c575cc8	0.013144679
80	0xbd903c81	-0.0704279
81	0x3df4681b	0.11933919
82	0xbd9092ec	-0.07059273
83	0x3d81e900	0.06343269
84	0xbe22f58c	-0.15913981
85	0xbd3a90e9	-0.045548353
86	0x3d7f7399	0.062366102
87	0xbc3376ee	-0.010953648
88	0xbd49c445	-0.049259443
89	0x3d842ceb	0.0645388
90	0xbcf0ff02	-0.029418472
91	0x3e33d2bd	0.17560859
92	0xbd1e6123	-0.038666856
93	0x3dd6f288	0.10495478
94	0xbd4aee54	-0.049543694
95	0x3d6911df	0.05690181
96	0xbdb4fab8	-0.08836883
97	0x3ae30648	0.0017320598
98	0xbe02ba1f	-0.12766312
99	0x3d408989	0.047006164
100	0xbc9c365c	-0.01906889
101	0xbdea1192	-0.114291325
102	0x3d5e3d91	0.054257933
103	0x3c7e6596	0.01552715
104	0xbdd1f5e2	-0.102519765
105	0xbdc94f98	-0.098296344
106	0xbda6a1e8	-0.0813635
107	0x3d4d1425	0.05006804
108	0x3b324d08	0.0027206559
109	0xbda6e3bc	-0.08148906
110	0x3d148971	0.036263887
111	0x3dece43f	0.11566972
112	0x3a11a896	0.00055564323
113	0xbd9fbc7a	-0.07799621
114	0xbe2cea89	-0.16886343
115	0xbcd3ee7e	-0.025870558
116	0xbda1d458	-0.079018295
117	0x3d870713	0.06593146
118	0x3d90846f	0.0705651
119	0x3e0e71e2	0.1391063
120	0xbd0a83cd	-0.0338171
121	0xbdbffd8e	-0.093745336
122	0xbd856923	-0.06514194
123	0xbd4734ab	-0.048634212
124	0x3df2cf10	0.118559
125	0xbdb78a4a	-0.089619234
126	0x3dd9c4ee	0.106332645
127	0xbced4e7c	-0.028968088
128	0x3e09d750	0.13461041
129	0xbb908c9c	-0.004411293
130	0x3d4ce1da	0.050020076
131	0x3caf89fd	0.021428103
132	0xbd2ae4a5	-0.04172196
133	0xbd374c9b	-0.04475079
134	0x3d16eea6	0.036848687
135	0xbd36be4e	-0.044615082
136	0x3d9658be	0.07341145
137	0x3d0dacf4	0.03458877
138	0xbcc46ab0	-0.023976654
139	0x3d145de3	0.03622235
140	0xbd58ccc1	-0.052929644
141	0xbdeeabe0	-0.11653876
142	0x3dc1b315	0.09457985
143	0x3c02735f	0.007962077
144	0x3cb8baab	0.022549948
145	0x3dabf85a	0.08396979
146	0x3d40ac05	0.04703905
147	0x3d96ec5d	0.073693015
148	0x3b7f8e86	0.0038994863
149	0xbdfdfa17	-0.124012165
150	0xbd8d9195	-0.06912533
151	0xbd09f2c7	-0.033678796
152	0x3b301b77	0.002687184
153	0xbc56706e	-0.013088329
154	0xbd9d446b	-0.07679065
155	0x3e00e949	0.12588991
156	0xbd87d717	-0.06632822
157	0x3c3f3cb5	0.0116721885
158	0xbca88042	-0.02056897
159	0xbb8bcecb	-0.004266595
160	0x3e0c5714	0.13705093
161	0x3e0fc558	0.14040124
162	0x3e0d8bf1	0.13822915
163	0x3e2d73df	0.16938733
164	0xbd78a27f	-0.060701843
165	0xbe38e5a0	-0.18056345
166	0x3e0f2351	0.13978316
167	0xbdfbf1f2	-0.12302007
168	0xbcdd60fd	-0.027023787
169	0xbd9035ff	-0.07041549
170	0xbd14d520	-0.036336064
171	0x3d59f8a2	0.05321563
172	0xbb047ec2	-0.0020217155
173	0xbda05a00	-0.07829666
174	0xbd08ed39	-0.03342936
175	0x3b3b299a	0.0028558732
176	0xbdde7dc1	-0.108638294
177	0x3ddde6b3	0.10835018
178	0xbd807c1e	-0.062736735
179	0xbd82caee	-0.06386362
180	0xbe8d3757	-0.27581283
181	0x3e62796d	0.22116633
182	0x3cc50d85	0.024054298
183	0xbd435902	-0.047692306
184	0xbd5f79f7	-0.054559674
185	0x3d9e4268	0.0772751
186	0xbe039cd7	-0.12852798
187	0xbd4a4918	-0.049386114
188	0xbc873915	-0.016506711
189	0x3db6f1de	0.08932851
190	0x3d8ad324	0.06778553
191	0x3dbac42e	0.091194496
192	0x3e17ed8c	0.1483671
193	0x3da847ba	0.08216806
194	0xbd99ba65	-0.07506255
195	0x3d0c140e	0.034198813
196	0xbd3eb81d	-0.046562303
197	0xbd89ee0a	-0.067348555
198	0xbdd8bf85	-0.105834045
199	0x3d593b16	0.053034864
200	0xbe0b5744	-0.13607508
201	0x3dff7de9	0.12475187
202	0x3db6b26e	0.089207515
203	0x3d6d6a01	0.05796242
204	0x3dd24ad1	0.10268176
205	0x3d67f2a9	0.056627903
206	0xbd79a550	-0.06094867
207	0x3bedc28b	0.0072558573
208	0x3d83a703	0.06428339
209	0x3d2d8814	0.042366102
210	0xbda23dd4	-0.07921949
211	0x3d257b98	0.04040107
212	0xbb2a33c0	-0.0025970787
213	0x3d8a3568	0.06748468
214	0xbdca302e	-0.09872471
215	0xbdb2c552	-0.08729042
216	0x3c13383c	0.008985575
217	0xbdaed98e	-0.08537589
218	0x3d20dc56	0.03927263
219	0x3db7902c	0.089630455
220	0x3d888110	0.06665242
221	0xbe1acee7	-0.1511799
222	0xbe413548	-0.18867981
223	0xbe19b886	-0.15011796
224	0xbdf044c0	-0.11731863
225	0x3d3ac8a9	0.04560152
226	0xbd9bdf12	-0.07610907
227	0x3b51a0db	0.0031986746
228	0x3dce4e70	0.100735545
229	0x3ce11db8	0.027479991
230	0xbd35576d	-0.04427283
231	0x3d4d996b	0.05019514
232	0x3ce38b12	0.027776275
233	0xbe02f589	-0.12788977
234	0xbbfa7bd3	-0.0076441555
235	0xbd0342a9	-0.032045994
236	0xbe0deadc	-0.13859123
237	0xbd81213b	-0.06305166
238	0xbde9924a	-0.114048555
239	0x3ca0b4dd	0.019617492
240	0x3d83b84b	0.064316355
241	0xbc4891b7	-0.012241772
242	0x3d1c5216	0.03816422
243	0xbdc4b608	-0.09605032
244	0xbbcc7c42	-0.0062403986
245	0xbc1c1f8d	-0.009529007
246	0xbd16d93d	-0.03682827
247	0xbcb2c8c2	-0.021824244
248	0xbdf8110c	-0.121126264
249	0xbcb140ac	-0.021637283
250	0xbdf0076f	-0.11720168
251	0x3e02e174	0.12781316
252	0x3d9d3e6b	0.07677921
253	0xbe1b9cc9	-0.15196528
254	0x3d7eb358	0.062182754
255	0x3df71cde	0.12066053

lstm.bias_ih_l1 f4 [256]
0	0xbcfc0ceb	-0.030767879
1	0xbd95d718	-0.073164165
2	0xbe78a4e9	-0.24281658
3	0xbe4b1177	-0.19830881
4	0xbe119b78	-0.14219463
5	0xbe0cba42	-0.13742927
6	0xbdd45b4b	-0.10368975
7	0x3d86cd8e	0.06582175
8	0xbdd90b29	-0.10597832
9	0xbe6791f0	-0.22614264
10	0xbe2b2317	-0.16712604
11	0xbd4e6ac1	-0.050394777
12	0x3b246c84	0.0025089094
13	0xbe3f3699	-0.18673171
14	0xbdb93f16	-0.09045236
15	0xbe110d7a	-0.14165297
16	0xbd861db0	-0.06548631
17	0xbe035f11	-0.12829234
18	0x3e825c15	0.25460878
19	0x3c0d1cf2	0.008612858
20	0xbde5fe3d	-0.11230133
21	0xbe23efc7	-0.16009437
22	0xbd2afd15	-0.041745264
23	0xbd9228e1	-0.07136703
24	0xbdad7f38	-0.08471531
25	0xbe57ed7d	-0.21086688
26	0x3abbb4b9	0.0014320827
27	0xbe34314e	-0.17596933
28	0xba1a379a	-0.0005882919
29	0xbe044017	-0.12915073
30	0xbdc546e7	-0.09632664
31	0xbdadf96d	-0.0849484
32	0xbe3db49b	-0.18525927
33	0xbdb5550e	-0.088541135
34	0xbe0def0d	-0.13860722
35	0xbd415856	-0.047203384
36	0xbe0305af	-0.12795137
37	0xbb71290d	-0.003679815
38	0xbe0358a9	-0.1282679
39	0xbe60c6cc	-0.21950835
40	0xbe6652f6	-0.22492585
41	0x3c3ebebe	0.011642156
42	0xbe600cc0	-0.21879864
43	0xbdbb22e5	-0.09137515
44	0xbe59c700	-0.21267319
45	0xbe5d50ac	-0.21612805
46	0xbddc6089	-0.107606
47	0xbcbad4c3	-0.02280653
48	0xbe4be665	-0.19912107
49	0xbd8dda18	-0.06926364
50	0xbe87d218	-0.26527476
51	0xbdf2c4ee	-0.118539676
52	0xbe538153	-0.20654802
53	0xbe416eac	-0.18889874
54	0xbe407bd9	-0.18797244
55	0xbe139c0e	-0.14414999
56	0xbe46e192	-0.19421986
57	0xbe01b413	-0.12666349
58	0xbe7bb36e	-0.24580166
59	0xbe183dea	-0.14867368
60	0xbe3ba259	-0.1832365
61	0xbd33ca02	-0.04389382
62	0xbe2e3479	-0.17012204
63	0xbd60bd72	-0.05486817
64	0x3e4b01bc	0.1982488
65	0xbd4bf753	-0.049796414
66	0xbe0106d8	-0.12600267
67	0xbe29fbb9	-0.16599931
68	0xbd58ba50	-0.052912056
69	0xbe0022d1	-0.12513281
70	0xbb7fdfd6	-0.0039043329
71	0x3e1d246b	0.15345924
72	0x3c9c3435	0.019067863
73	0xbd91921d	-0.07107947
74	0xbc2257d2	-0.009908633
75	0x3e17f84a	0.14840809
76	0xbce7e499	-0.028307246
77	0xbd747b20	-0.059687734
78	0xbd7e4593	-0.06207807
79	0xbdd11780	-0.102095604
80	0x3ca285b4	0.019839145
81	0xbe0a5f1f	-0.13512848
82	0x3f272bd5	0.6530126
83	0x3baea785	0.0053300285
84	0x3e6a1a04	0.22861487
85	0xbc4ae740	-0.012384236
86	0x3d8debdd	0.06929753
87	0xbd2ffa4f	-0.042963322
88	0xbdcaf4b4	-0.09909955
89	0xbe8285b3	-0.2549263
90	0xbd59f3be	-0.053210966
91	0x3e341899	0.17587508
92	0xbe58c7a1	-0.21169902
93	0xbc06588e	-0.008199824
94	0xbd873125	-0.066011705
95	0xbe271242	-0.16315559
96	0xbd2728f8	-0.040810555
97	0x3da22493	0.07917132
98	0xbe0a37dd	-0.13497873
99	0x3dec1725	0.11527852
100	0xbdccadf2	-0.09994115
101	0xbd6e819f	-0.058229085
102	0xbd323269	-0.043505106
103	0xbe5cc7b2	-0.21560553
104	0xbdce743b	-0.10080763
105	0xbd6c858f	-0.05774456
106	0xbdf7adb4	-0.12093678
107	0xbd357760	-0.044303298
108	0xbdcf8ec9	-0.10134656
109	0xbd3b9fdf	-0.04580676
110	0x3d09fc43	0.03368784
111	0xbda02692	-0.07819857
112	0xbd9cb93d	-0.07652519
113	0xbe5b040f	-0.21388267
114	0xbe42e6b8	-0.19033325
115	0xbbf57525	-0.0074907714
116	0xbcd773e6	-0.026300382
117	0x3d0dffcc	0.034667775
118	0xbdd1113d	-0.10208366
119	0x3d0f0207	0.034914043
120	0xbe388fb3	-0.18023567
121	0xbe214a5b	-0.1575102
122	0xbca8b73d	-0.020595187
123	0xbd97e38c	-0.07416448
124	0xbde85bc3	-0.11345627
125	0xbd915960	-0.07097125
126	0xbdb04627	-0.086071305
127	0x37f6b5b0	2.941009e-05
128	0xbd8d3cb4	-0.06896344
129	0xbdbe7052	-0.09298767
130	0x3c8a3333	0.016870117
131	0x3d8a4533	0.0675148
132	0x3d69346e	0.056934766
133	0x3c684154	0.014175732
134	0xbe155035	-0.14581378
135	0xbd834a84	-0.06410697
136	0xbdc4bc1f	-0.09606194
137	0x3ca35a80	0.019940615
138	0xbd221ab3	-0.039576244
139	0xbcfdb1c3	-0.030968552
140	0xbcd47d38	-0.025938615
141	0xbd5003c3	-0.050784837
142	0x3d776e6f	0.060408052
143	0x3a59f35f	0.0008314158
144	0xbc61e6e7	-0.013787962
145	0x3a778785	0.0009442496
146	0xbd9b034a	-0.07568987
147	0xbb858d24	-0.004075663
148	0xbdd527b3	-0.10407963
149	0x3cb1ef77	0.021720631
150	0x3d79c563	0.06097926
151	0xbd11eabc	-0.03562425
152	0x3d6df22b	0.058092277
153	0x3d384756	0.044989906
154	0x3c3447d5	0.011003454
155	0xbddba007	-0.10723882
156	0xbd193e92	-0.037413187
157	0xbd90e597	-0.07075041
158	0x3d92ec12	0.07173933
159	0xbdb0bd2b	-0.08629831
160	0xbb9ee33f	-0.004848867
161	0x3d118c02	0.035533912
162	0xbd29f875	-0.041496713
163	0xbdbb96d2	-0.09159626
164	0xbb376c75	-0.002798823
165	0xbd49b969	-0.049249087
166	0xbc026a5e	-0.00795993
167	0x3d0f48f3	0.03498168
168	0xbcf7bdd4	-0.030241884
169	0xbcece32c	-0.028916918
170	0x3c425a9a	0.011862421
171	0x39794b35	0.00023774507
172	0x3dc8bdbb	0.09801813
173	0x3d0f8086	0.03503468
174	0xbb8f7a48	-0.0043785907
175	0x3baa4d73	0.005197221
176	0x3cb729a8	0.02235873
177	0xbc991966	-0.018688869
178	0xbbca6d44	-0.0061775763
179	0x3d179496	0.037006937
180	0x3d36c26b	0.044619005
181	0x3cdd70a3	0.027031248
182	0xbc821393	-0.015878474
183	0xbd628973	-0.055306863
184	0x3ce9b219	0.028527306
185	0x3c66fd5e	0.014098493
186	0xbca2a9ea	-0.019856412
187	0x3dea8c15	0.114525
188	0x3d0e14c7	0.034687784
189	0xba3e6804	-0.00072634243
190	0xbd094cc5	-0.03352048
191	0xbd461c63	-0.048366915
192	0x3dd2e88d	0.10298262
193	0x3d846ee0	0.0646646
194	0xbe5346bf	-0.20632456
195	0xbe4d0e3a	-0.20024958
196	0xbda73913	-0.08165183
197	0xbe7e439a	-0.24830475
198	0x3c386c97	0.011256359
199	0xbd27e66a	-0.040991224
200	0xbd09488a	-0.033516444
201	0xbdeeae6a	-0.116543606
202	0xbd8ab136	-0.067720816
203	0xbe5dfb4c	-0.21677893
204	0xbdebc776	-0.115126535
205	0x3b7fca5a	0.0039030523
206	0xbe440737	-0.19143377
207	0x3c0052fe	0.007832287
208	0xbe054cb9	-0.13017549
209	0xbe0b566d	-0.13607188
210	0xbe114ffa	-0.14190665
211	0xbe5f66db	-0.2181658
212	0x3e0e0db8	0.13872421
213	0xbe14d2af	-0.14533494
214	0xbd13a048	-0.036041528
215	0xbe5f9a05	-0.21836098
216	0xbd9d25ad	-0.07673202
217	0xbd866d06	-0.06563763
218	0xbe48f118	-0.1962322
219	0xbddb364b	-0.10703715
220	0xbcffeedd	-0.031241829
221	0xbe0acc09	-0.13554396
222	0xbe598c71	-0.2124498
223	0xbe259ba5	-0.16172655
224	0xbe8e2c8c	-0.27768362
225	0xbe1478f2	-0.14499262
226	0xbe31a045	-0.17346294
227	0xbc72efd0	-0.014827684
228	0xbe0b5e7b	-0.1361026
229	0xbe00d316	-0.12580523
230	0xbde860aa	-0.11346562
231	0xbe631909	-0.22177519
232	0xbd87c106	-0.06628613
233	0xbbf121a7	-0.007358748
234	0xbd9909d7	-0.0747258
235	0xbd7ab23e	-0.06120514
236	0xbcb4e12c	-0.022080027
237	0xbe026b52	-0.12736252
238	0xbe63065d	-0.22170396
239	0xbd2f439e	-0.042789094
240	0xbda088c6	-0.078385875
241	0xbe35a0dc	-0.17737144
242	0xbe31c4cb	-0.17360227
243	0xbda4f4ce	-0.08054505
244	0xbe6676f9	-0.22506322
245	0xbcee7fe0	-0.02911371
246	0xbe4c88cf	-0.19974063
247	0xbdbe9660	-0.093060255
248	0xbe6ad367	-0.22932206
249	0xbdc75e9a	-0.09734841
250	0xbe6528dd	-0.2237887
251	0xbde6f68a	-0.11277492
252	0xbced779f	-0.028987704
253	0xbd8bef06	-0.068326995
254	0xbe083a82	-0.13303569
255	0xbd9f3889	-0.07774455
