best_model.pth (torch, 252277 bytes, 31 tensors)

encoder.0.weight f4 [256, 16]
0	0x3ddcb201	0.10776139
1	0xbda3daae	-0.08000694
2	0xbcf45772	-0.029826853
3	0xbe404790	-0.18777299
4	0xbdadde5f	-0.084896795
5	0xbd6cc2d9	-0.05780301
6	0x3e1401fe	0.14453885
7	0xbe8db888	-0.2767985
8	0x3e18c751	0.14919783
9	0x3d9b74fe	0.07590674
10	0xbe94ad7e	-0.29038614
11	0xbdd77cbb	-0.10521837
12	0xbd101caf	-0.035183605
13	0x3e124695	0.14284737
14	0xbd984a1a	-0.07436009
15	0x3dc6978c	0.09696874
16	0x3dce942c	0.10086855
17	0xbe4d32c2	-0.20038894
18	0x3c8c67f3	0.01713941
19	0x3e0bfbf6	0.13670334
20	0xbe29538a	-0.16535774
21	0xbd7244f4	-0.05914779
22	0x3d7c4755	0.061591465
23	0xbe3e10f9	-0.18561162
24	0x3d95cad2	0.073140755
25	0x3e0569a5	0.13028581
26	0xbdfc3298	-0.123143375
27	0x3d483d41	0.04888654
28	0xbe82ec2f	-0.2557082
29	0xbe57a3fa	-0.21058646
30	0xbdfc98f2	-0.123338595
31	0xbc1fe8dc	-0.009760108
32	0xbdeff82c	-0.11717257
33	0x3c9c7af3	0.019101596
34	0x3b96cbed	0.0046019466
35	0xbe83f346	-0.2577154
36	0xbe8a4d38	-0.27012038
37	0x3e433fbc	0.19067281
38	0xbe2e2a28	-0.17008269
39	0xbe25ef96	-0.16204676
40	0x3ba80805	0.005127909
41	0xbdffa47f	-0.12482547
42	0xbe28b14f	-0.16473888
43	0xbd3cc052	-0.04608185
44	0x3e1f2422	0.15541127
45	0xbe60853e	-0.21925828
46	0x3e24541b	0.16047709
47	0x3d8f5967	0.06999474
48	0xbe41e585	-0.18935211
49	0x3e5f9653	0.21834688
50	0xbe130e40	-0.14360905
51	0x3cb43137	0.021996124
52	0xbe117b4a	-0.14207187
53	0xbe2e5a12	-0.17026547
54	0xbd8b122e	-0.06790577
55	0x3e3dd639	0.1853875
56	0x3d898bea	0.067161396
57	0xbd426fa7	-0.04746976
58	0xbe8161d6	-0.25269955
59	0xbe809c9e	-0.2511949
60	0x3b29b724	0.0025896514
61	0x3c6fc522	0.0146344025
62	0xbe744295	-0.23853524
63	0xbd9f1548	-0.07767731
64	0x3e116adc	0.1420092
65	0x3dda6631	0.10664023
66	0x3dd565c0	0.10419798
67	0xbe167635	-0.1469353
68	0xbdde0e16	-0.108425304
69	0xbda59fa4	-0.0808709
70	0x3e2d80bb	0.16943638
71	0x3e8a9d9d	0.27073374
72	0x3cbb2fd9	0.022849964
73	0x3df3a518	0.118967235
74	0x3e4c17de	0.1993098
75	0xbe02146a	-0.127031
76	0x3cd3efd5	0.025871197
77	0x3e7d301a	0.2472538
78	0xbe0c5a64	-0.13706356
79	0x3d9468df	0.07246565
80	0x3b593ed3	0.0033149018
81	0x3e610ef6	0.21978363
82	0xbbac4d2c	-0.005258223
83	0xbda29c14	-0.07939926
84	0x3b6c6da4	0.0036076093
85	0x3dc77480	0.097390175
86	0xbc8aaaa0	-0.016927063
87	0x3deedea7	0.11663561
88	0xbe1c7778	-0.15279949
89	0xbdf20f06	-0.11819272
90	0xbd5a8424	-0.053348675
91	0x3de9837f	0.11402034
92	0xbcd0fc61	-0.025510969
93	0xbe513919	-0.20431937
94	0x3e15b2de	0.14619014
95	0xbe829c21	-0.25509742
96	0xbe8c43e9	-0.2739556
97	0xbe6579d7	-0.2240976
98	0xbe14db73	-0.14536838
99	0xbe240568	-0.16017687
100	0xbd733799	-0.059379194
101	0x3dca210a	0.09869583
102	0xbda9e3f9	-0.082954355
103	0xbe6eef56	-0.23333487
104	0x3e385af0	0.1800344
105	0x3e32a059	0.1744398
106	0xbccec2db	-0.025239399
107	0x3e1275b0	0.14302707
108	0xbbbfab4e	-0.0058492785
109	0x3d91a33e	0.07111214
110	0x3dd7b358	0.10532254
111	0xbddeeaf5	-0.10884658
112	0x3cb260ab	0.02177461
113	0x3c964c1d	0.01834684
114	0x3d44e029	0.04806534
115	0x3e747f37	0.23876654
116	0xbe28fcdd	-0.1650271
117	0xbe5c9bcb	-0.21543805
118	0x3e00c403	0.12574773
119	0xbe5773f7	-0.21040331
120	0x3d43d6f4	0.047812417
121	0xbdcd14a6	-0.10013704
122	0x3db3bbb4	0.08776036
123	0x3e27fa48	0.16404068
124	0xbe0de00b	-0.13854997
125	0x3d3f0f1b	0.046645265
126	0x3d889f9c	0.06671068
127	0x3e7f9b51	0.24961592
128	0xbe1ab0af	-0.15106462
129	0x3d2c8540	0.042119265
130	0x3de7d70f	0.11320316
131	0x3c0c1143	0.008549037
132	0x3d837b2d	0.06419978
133	0xbe2a7ad2	-0.16648415
134	0xbe217bf5	-0.15769942
135	0xbe4abf78	-0.19799602
136	0x3e4dde45	0.2010432
137	0xbe3c4206	-0.18384561
138	0xbe429834	-0.19003373
139	0x3e8a24a9	0.26981094
140	0xbe1caf60	-0.15301275
141	0xbcf9531e	-0.030435141
142	0x3e31fc66	0.17381439
143	0x3d6c07d2	0.057624646
144	0x3c994181	0.018707993
145	0xbe5fe3fb	-0.21864311
146	0xbe226b8a	-0.15861335
147	0xbddb9109	-0.10721023
148	0xbe698dd6	-0.22808012
149	0xbe1dadff	-0.15398405
150	0xbe304521	-0.1721387
151	0x3e46acc7	0.19401847
152	0x3d3214b3	0.04347677
153	0x3d2c20ec	0.042023584
154	0xbd22117d	-0.03956746
155	0x3e07eb55	0.13273366
156	0xbe6e273a	-0.23257151
157	0xbd228565	-0.039677996
158	0x3e8c6a5c	0.27424896
159	0x3d9a5a78	0.07536787
160	0xbe8d4f48	-0.2759955
161	0xbe5072fd	-0.20356365
162	0xbe3a895b	-0.1821646
163	0xbe6d7638	-0.23189628
164	0xbe82239c	-0.25417793
165	0x3d2535d5	0.04033454
166	0x3e29d91c	0.16586727
167	0xbe42850a	-0.18996063
168	0x3d8a0375	0.067389406
169	0x3e54fab5	0.20798762
170	0xbdc91384	-0.098181754
171	0x3ddb523e	0.10709046
172	0x3d887422	0.066627756
173	0xbe304a91	-0.17215945
174	0x3d0beff3	0.03416438
175	0x3e0e71ad	0.13910551
176	0x3bd9731e	0.0066360375
177	0xbd83ff25	-0.06445149
178	0xbde80489	-0.1132899
179	0x3d92925b	0.07156821
180	0x3d9f5e18	0.07781619
181	0x3dcf1485	0.10111336
182	0x3e2eedd7	0.17082916
183	0x3d13e7aa	0.036109604
184	0x3e4ca24f	0.19983791
185	0x3e5785a6	0.21047077
186	0x3d251e97	0.040312376
187	0xbe11a86a	-0.14224401
188	0x3d2ebb66	0.042659186
189	0x3daa4de4	0.08315638
190	0xbd902783	-0.07038786
191	0x3e32bd85	0.17455108
192	0xbe869b39	-0.262903
193	0x3da43726	0.08018331
194	0xbd385b06	-0.04500868
195	0x3e29ceb7	0.16582762
196	0xbe5fe22f	-0.21863626
197	0xbe6e546c	-0.23274392
198	0x3e692900	0.22769547
199	0xbe47a6a9	-0.1949717
200	0xbe3d4020	-0.18481493
201	0x3da67df5	0.08129493
202	0xbe3935a2	-0.18086866
203	0xbda18290	-0.07886231
204	0xbdd13209	-0.102146216
205	0xbd997ba4	-0.07494286
206	0xbe151540	-0.14558887
207	0xbe1cb50f	-0.15303443
208	0xbe1037d4	-0.14083797
209	0xbe89b397	-0.2689483
210	0xbe0506f3	-0.12990932
211	0xbdeb05ed	-0.1147574
212	0x3e2fa5a2	0.17153028
213	0xbd69f243	-0.057115804
214	0xbe182bb6	-0.14860424
215	0xbb8516f7	-0.0040615755
216	0x3da50adc	0.08058712
217	0x3e128c74	0.14311391
218	0x3e1b44d2	0.15162972
219	0x3d98ab39	0.07454533
220	0x3e51b4ee	0.20479175
221	0xbdb62170	-0.088930964
222	0xbd0d9f8a	-0.034575976
223	0xbdc2ec25	-0.09517697
224	0xbd10e035	-0.03537007
225	0xbddca23a	-0.1077313
226	0xbb693272	-0.0035583046
227	0xbe76295e	-0.24039218
228	0xbe52c7ef	-0.20584081
229	0xbe0f3296	-0.13984141
230	0xbe266734	-0.16250306
231	0xbe396057	-0.18103157
232	0xbe3753c3	-0.17903046
233	0x3d303594	0.043019846
234	0xbe6cfaf1	-0.23142602
235	0xbd9a94a0	-0.07547879
236	0x3cefd48c	0.029276155
237	0xbe76791b	-0.24069636
238	0xbdb2397b	-0.0870237
239	0xbe90f4e4	-0.28311837
240	0x3d0ddd10	0.03463465
241	0xbe6191d1	-0.22028281
242	0xbd97b7ef	-0.074081294
243	0x3e6078ce	0.21921083
244	0x3d4ff732	0.050772853
245	0x3e5303e7	0.20606957
246	0xbe666158	-0.22498071
247	0xbe328b27	-0.17435895
248	0x3e136392	0.14393452
249	0xbe1e40be	-0.15454385
250	0xbd85c851	-0.06532348
251	0xbe36dd23	-0.17857794
252	0x3e3202a3	0.17383818
253	0xbd881db5	-0.06646291
254	0xbe282c1a	-0.16423073
255	0xbe46f059	-0.19427623

encoder.0.bias f4 [256]
0	0xbd257fa6	-0.04040494
1	0x3d5fd752	0.054648705
2	0x3e066ecd	0.13128205
3	0xbc9c8583	-0.019106632
4	0xbe746f35	-0.23870547
5	0x3d16276e	0.036658697
6	0x3dd0142e	0.10160099
7	0xbe5469e1	-0.20743515
8	0x3d91d51e	0.07120727
9	0xbe642fff	-0.22283934
10	0x3caf249d	0.021379763
11	0xbe666dc3	-0.22502808
12	0x3e426f23	0.18987708
13	0x3d9994a1	0.07499052
14	0xbde8068d	-0.113293745
15	0xbe5ab8a4	-0.21359497
16	0x3d00a838	0.031410426
17	0xbe42c7d5	-0.19021542
18	0x3e20f3de	0.15718028
19	0x3e37d3d9	0.17951907
20	0xbe541ef5	-0.20714934
21	0xbd39b313	-0.045336794
22	0x3dc61e37	0.09673732
23	0x3d94406d	0.07238851
24	0xbdb9a7ee	-0.09065233
25	0x3d771b4a	0.06032876
26	0x3e5f8aa0	0.21830225
27	0xbd06e3bf	-0.03293204
28	0xbe46f38e	-0.19428846
29	0x3e0eb8f6	0.13937744
30	0xbb42c40c	-0.0029718904
31	0xbcfdc8da	-0.030979563
32	0x3da8ee08	0.08248526
33	0x3dcf4841	0.10121203
34	0x3d8cb451	0.0687033
35	0xbd81d069	-0.06338579
36	0xbdeebbf7	-0.11656945
37	0xbdf830cd	-0.12118683
38	0xbe7b6177	-0.24548899
39	0x3e53bf70	0.20678496
40	0xbd82cff9	-0.06387324
41	0xbcff1775	-0.031139115
42	0xbd5d9462	-0.054096587
43	0xbdddf09f	-0.108369105
44	0xbe5f4610	-0.2180407
45	0x3e8105dd	0.25199786
46	0x3c5b1a91	0.013373033
47	0xbdffabc9	-0.12483937
48	0xbe495e0a	-0.1966478
49	0x3dcd1452	0.100136414
50	0xbc492edb	-0.012279238
51	0x3e709c4c	0.23497123
52	0x3e563904	0.20920187
53	0x3de801d9	0.113284774
54	0x3e026e9d	0.12737508
55	0x3dc81317	0.09769266
56	0xbe2f741b	-0.17134134
57	0x3df6df3c	0.12054297
58	0x3d3a5863	0.04549445
59	0xbda1fed0	-0.0790993
60	0xbe718d85	-0.23589142
61	0x3bc7e6ca	0.0061005102
62	0xbd07f550	-0.033192933
63	0xbe22f900	-0.15915298
64	0xbe631d0a	-0.22179046
65	0xbe3393e6	-0.17536888
66	0x390dfeec	0.00013541774
67	0xbdd88a55	-0.1057326
68	0x3e4c1591	0.19930102
69	0x3ddb0a44	0.106953174
70	0x3d4cfc13	0.050045084
71	0x3e641d30	0.22276759
72	0xbcdf6399	-0.027269172
73	0x3de9b704	0.114118606
74	0xbe7444cd	-0.2385437
75	0x3e638a81	0.22220804
76	0x3dd106e3	0.10206392
77	0xbe7aff41	-0.24511434
78	0x3e5508d2	0.20804146
79	0x3c99dc4b	0.018781802
80	0x3c9a61ba	0.018845428
81	0x3dfcff30	0.12353361
82	0x3d8aa9ea	0.0677069
83	0x3e750d4b	0.23930852
84	0x3e125f88	0.14294255
85	0xbd27518e	-0.04084926
86	0xbe46d8da	-0.1941866
87	0xbe7347a9	-0.23757805
88	0xbc51c9af	-0.012804433
89	0x3e24c6a8	0.16091406
90	0xbe0cf23a	-0.13764277
91	0xbe6ec1ef	-0.23316167
92	0x3dbb251f	0.0913794
93	0x3d8a1964	0.06743124
94	0xbe317561	-0.17329933
95	0x3d2f5c49	0.04281262
96	0xbe3ca100	-0.18420792
97	0xbd801a69	-0.06255037
98	0x3e294b1f	0.16532563
99	0x3e16ace6	0.14714393
100	0xbe61c2bf	-0.22046946
101	0x3e6127c4	0.21987826
102	0xbe625afa	-0.22105017
103	0xbe5b29a2	-0.214026
104	0x3d3e0085	0.046387214
105	0x3e63fd0d	0.222645
106	0xbe36bfc3	-0.17846589
107	0xbe2bf38a	-0.16792122
108	0x3dbe527c	0.092930764
109	0xbe81b6c7	-0.2533476
110	0x3e6f2e1c	0.23357433
111	0x3cbeb05e	0.023277458
112	0xbd05fa17	-0.032709207
113	0xbe107217	-0.14106022
114	0xbe2c8582	-0.16847804
115	0xbc8c44ef	-0.017122714
116	0xbe5358a5	-0.20639284
117	0x3c2fca96	0.010729453
118	0x3e02558b	0.12727945
119	0xbe4dbdc1	-0.20091917
120	0xbe283c5a	-0.16429272
121	0x3d77a914	0.06046398
122	0xbdd9d81e	-0.10636924
123	0x3e036d03	0.12834553
124	0x3e4c3bfd	0.19944759
125	0x3d012bdd	0.031535972
126	0xbe60a569	-0.21938099
127	0xbe0a2795	-0.13491662
128	0xbe0c4129	-0.13696732
129	0x3ca0829d	0.019593531
130	0xbdf96609	-0.12177665
131	0xbdf305a4	-0.1186631
132	0xb4ee0c00	-4.4339686e-07
133	0x3e2feda7	0.17180501
134	0x3d91ff82	0.071288124
135	0xbdd0e374	-0.10199633
136	0xbdf5f161	-0.1200893
137	0xbe341bb5	-0.17588694
138	0x3e0b1678	0.1358279
139	0xbdc7cbdb	-0.09755679
140	0x3e7c9083	0.24664502
141	0xbbf605d1	-0.0075080176
142	0xbe768d61	-0.2407737
143	0x3cc906f2	0.024539445
144	0x3e5b5466	0.21418914
145	0xbd545674	-0.05184026
146	0xbd8ece74	-0.069729716
147	0x3e4f5f71	0.20251252
148	0x3da023c1	0.078193195
149	0x3e7b9e6a	0.24572149
150	0xbd8a856d	-0.0676373
151	0x3c4dc92b	0.012560169
152	0x3df16bdf	0.11788153
153	0xbc5238b4	-0.012830902
154	0xbe5b0020	-0.21386766
155	0xbe149c88	-0.14512837
156	0x3e628210	0.22119927
157	0x3e2ee3f6	0.17079148
158	0xbe59f35d	-0.21284242
159	0x3e785b24	0.24253517
160	0x3e2ac7f8	0.16677845
161	0xbe233444	-0.15937907
162	0xbe54913d	-0.20758529
163	0xbdecee71	-0.115689166
164	0x3e457746	0.1928378
165	0xbb94b198	-0.0045377724
166	0x3d196494	0.037449434
167	0x3e348e12	0.1763232
168	0xbe4dff5a	-0.2011694
169	0x3e0f252d	0.13979025
170	0xbdccb76f	-0.09995925
171	0x3e2c9e0a	0.16857162
172	0x3d41d258	0.04731974
173	0xbdf5c654	-0.12000719
174	0xbe5717aa	-0.21005121
175	0xbe2f3b17	-0.17112385
176	0x3e4b234d	0.19837685
177	0x3e190cf8	0.14946353
178	0x3d6e47c9	0.05817393
179	0xbe1be9dd	-0.1522593
180	0xbe08bf31	-0.13354184
181	0xbc1f54c3	-0.009724799
182	0x3db3bffb	0.08776852
183	0x3e342cd8	0.17595232
184	0x3d41d85a	0.04732547
185	0xbe1456ea	-0.1448628
186	0xbc674330	-0.01411514
187	0x3d82ce24	0.063869745
188	0xbe0003a7	-0.12501393
189	0x3cea7d08	0.028624073
190	0x3db2b2eb	0.08725532
191	0x3de32d99	0.110926814
192	0xbdc619d4	-0.09672895
193	0x3b5933dc	0.0033142483
194	0x3bdfe180	0.0068323016
195	0xbcf328f7	-0.02968262
196	0x3dd896bb	0.105756246
197	0x3d5f3859	0.054497097
198	0x3dc58fcc	0.09646568
199	0xbcde5a1f	-0.027142582
200	0x3da1992f	0.078905456
201	0xbdf9930b	-0.12186249
202	0xbdcaa336	-0.09894411
203	0xbd8ee3ad	-0.069770195
204	0x3e67d2be	0.22638986
205	0x3cdc8882	0.02692056
206	0xbdac7e9f	-0.084225886
207	0x3dafc4aa	0.085824326
208	0x3e3be77d	0.18350025
209	0x3e12408b	0.14282434
210	0xbe7fa92a	-0.24966875
211	0x3d91f39f	0.07126545
212	0x3de10fdf	0.10989355
213	0xbe589c04	-0.21153265
214	0x3e491820	0.19638109
215	0xbc99c058	-0.018768474
216	0x3e4eec69	0.20207371
217	0x3e60a63a	0.2193841
218	0x3d4a1d24	0.049344197
219	0xbd957643	-0.07297947
220	0xbe223cff	-0.1584358
221	0x3d238e02	0.03993035
222	0x3b57a5d3	0.0032905235
223	0x3d260100	0.040528297
224	0x3e7cd6e3	0.24691348
225	0x3def94f3	0.11698332
226	0x3e231f88	0.15929997
227	0x3d0a3880	0.03374529
228	0xbe3ea0bb	-0.18616001
229	0x3db87d6c	0.09008297
230	0x3e31f8d1	0.17380072
231	0x3c9bed9d	0.019034201
232	0x3e59738a	0.21235481
233	0xbe40b942	-0.1882067
234	0xbd7d9520	-0.061909795
235	0xbdd69181	-0.104769714
236	0xbe40ba2d	-0.1882102
237	0x3d3868a4	0.045021668
238	0x3e1a1d8d	0.15050335
239	0xbe107572	-0.14107302
240	0xbdfcc83c	-0.12342879
241	0xbe2eac88	-0.17058003
242	0xbe54c383	-0.20777707
243	0xbe7ea338	-0.2486695
244	0x3e455ed2	0.19274452
245	0xbd9c1cda	-0.076226905
246	0x3d54ed26	0.051983975
247	0xbe36a16a	-0.17835012
248	0x3d026c78	0.031841725
249	0xbda3aa00	-0.07991409
250	0xbe3dc201	-0.18531038
251	0x3e086f46	0.13323697
252	0xbdabd774	-0.08390704
253	0x3dc40a7b	0.095723115
254	0xbc8c1b04	-0.017102726
255	0xbc1d051b	-0.009583737

encoder.1.weight f4 [256]
0	0x3f7b849d	0.98249227
1	0x3f84a91f	1.0364112
2	0x3f81a1c8	1.0127497
3	0x3f84567e	1.0338895
4	0x3f804f71	1.0024244
5	0x3f82b64c	1.0211883
6	0x3f833029	1.0249072
7	0x3f804f2a	1.0024159
8	0x3f7eaf7b	0.9948651
9	0x3f7684e1	0.9629651
10	0x3f8745e2	1.0568202
11	0x3f7db1ac	0.9909923
12	0x3f82388e	1.0173509
13	0x3f7baf9b	0.9831483
14	0x3f7af7d6	0.9803442
15	0x3f7d16fa	0.98863184
16	0x3f7969a2	0.9742681
17	0x3f7ba0b7	0.98292106
18	0x3f8490d6	1.03567
19	0x3f7cd697	0.9876494
20	0x3f82a0f1	1.0205365
21	0x3f81816a	1.0117619
22	0x3f7d0e02	0.988495
23	0x3f7f190f	0.9964761
24	0x3f7df291	0.9919825
25	0x3f76a9ec	0.9635303
26	0x3f848423	1.0352825
27	0x3f7d4279	0.98929554
28	0x3f7d4586	0.9893421
29	0x3f839dbe	1.0282514
30	0x3f863c73	1.0487198
31	0x3f791343	0.97295016
32	0x3f83a360	1.0284233
33	0x3f7b5fe4	0.9819319
34	0x3f81add5	1.0131174
35	0x3f815a88	1.0105753
36	0x3f80d670	1.0065441
37	0x3f82dce4	1.022366
38	0x3f81e6bd	1.0148541
39	0x3f8278d8	1.0193129
40	0x3f79359f	0.97347444
41	0x3f857efd	1.0429379
42	0x3f838f9a	1.0278199
43	0x3f83ebc1	1.0306321
44	0x3f83e97e	1.0305631
45	0x3f7d1cd0	0.9887209
46	0x3f780bbf	0.96892923
47	0x3f7d94d6	0.9905523
48	0x3f831263	1.0239986
49	0x3f81f2a1	1.015217
50	0x3f8037fb	1.0017084
51	0x3f772353	0.96538275
52	0x3f79e8ef	0.97621053
53	0x3f85861e	1.0431554
54	0x3f7ea121	0.99464613
55	0x3f804082	1.0019686
56	0x3f80161f	1.0006751
57	0x3f81ff99	1.0156127
58	0x3f8182b8	1.0118017
59	0x3f83e90e	1.0305498
60	0x3f8208fe	1.0158994
61	0x3f75da8e	0.96036613
62	0x3f81ce6b	1.0141119
63	0x3f84ce95	1.0375544
64	0x3f825d9b	1.0184816
65	0x3f80b70c	1.0055861
66	0x3f7a8b93	0.97869223
67	0x3f7de7fb	0.991821
68	0x3f7932bc	0.9734304
69	0x3f7ce3bf	0.9878501
70	0x3f7f9dd9	0.9985023
71	0x3f7c90e2	0.98658574
72	0x3f89a82e	1.0754449
73	0x3f7bda82	0.9838029
74	0x3f77bbc8	0.96770906
75	0x3f7a1efa	0.97703516
76	0x3f7d81b3	0.9902603
77	0x3f7f4ad0	0.9972353
78	0x3f7e2619	0.9927688
79	0x3f80421f	1.0020179
80	0x3f79efff	0.9763183
81	0x3f88287f	1.0637358
82	0x3f79f2f1	0.97636324
83	0x3f8088c8	1.0041742
84	0x3f80c722	1.006077
85	0x3f87404d	1.0566498
86	0x3f87c6f2	1.0607588
87	0x3f863760	1.0485649
88	0x3f73a140	0.9516792
89	0x3f7a89c9	0.97866493
90	0x3f810dae	1.00823
91	0x3f758cd5	0.9591802
92	0x3f8007fb	1.0002435
93	0x3f74f1cf	0.9568147
94	0x3f7cbbf5	0.987243
95	0x3f7dca85	0.99137145
96	0x3f7978cb	0.9744994
97	0x3f8485c1	1.0353318
98	0x3f824557	1.0177411
99	0x3f85fafe	1.0467222
100	0x3f79bf3d	0.9755743
101	0x3f7d118d	0.98854905
102	0x3f867d92	1.0507071
103	0x3f767096	0.9626554
104	0x3f7fab93	0.99871176
105	0x3f85047a	1.0391991
106	0x3f7d1d32	0.98872674
107	0x3f84eb03	1.038422
108	0x3f824102	1.0176089
109	0x3f784c80	0.9699173
110	0x3f7b1e78	0.98093367
111	0x3f7ec2a4	0.9951575
112	0x3f836481	1.0265046
113	0x3f7d90af	0.99048895
114	0x3f78d392	0.9719783
115	0x3f7ff9fd	0.99990827
116	0x3f82d171	1.0220166
117	0x3f800e5a	1.000438
118	0x3f7f3f11	0.99705607
119	0x3f8328f9	1.0246879
120	0x3f811b13	1.0086387
121	0x3f7df68a	0.99204314
122	0x3f7a3541	0.9773751
123	0x3f7e4173	0.9931862
124	0x3f8869f5	1.0657336
125	0x3f7f8f50	0.9982805
126	0x3f7827a6	0.969355
127	0x3f7b168b	0.9808127
128	0x3f8096de	1.0046041
129	0x3f81c210	1.0137348
130	0x3f7dc3fa	0.9912716
131	0x3f792625	0.9732383
132	0x3f83bca1	1.029194
133	0x3f7a178a	0.9769217
134	0x3f761ab9	0.96134526
135	0x3f72079e	0.9454287
136	0x3f7f261a	0.99667513
137	0x3f81b9e6	1.0134857
138	0x3f7ad74f	0.97984785
139	0x3f833730	1.0251217
140	0x3f817eab	1.0116781
141	0x3f776baa	0.9664866
142	0x3f7bc58a	0.98348296
143	0x3f783025	0.9694846
144	0x3f7e0434	0.99225163
145	0x3f759537	0.9593081
146	0x3f7f6962	0.99770176
147	0x3f816960	1.0110283
148	0x3f7d78e3	0.99012583
149	0x3f7e1c9e	0.99262416
150	0x3f7b659f	0.98201936
151	0x3f821433	1.0162414
152	0x3f80dee4	1.0068021
153	0x3f79ef06	0.97630346
154	0x3f822733	1.0168213
155	0x3f86c536	1.0528934
156	0x3f81770c	1.0114455
157	0x3f76b5ad	0.96370965
158	0x3f835346	1.0259788
159	0x3f808eae	1.0043542
160	0x3f868780	1.0510101
161	0x3f7f2bfc	0.9967649
162	0x3f86417a	1.0488732
163	0x3f770dfd	0.9650572
164	0x3f7c6173	0.98586196
165	0x3f7c6ab1	0.986003
166	0x3f7dcece	0.99143684
167	0x3f80870c	1.0041213
168	0x3f771947	0.96522945
169	0x3f77a67a	0.967384
170	0x3f77f10a	0.9685217
171	0x3f7e881a	0.99426425
172	0x3f7d1f49	0.9887586
173	0x3f81c632	1.013861
174	0x3f76bc7e	0.96381366
175	0x3f7afd14	0.98042417
176	0x3f78a16f	0.9712133
177	0x3f850eba	1.0395119
178	0x3f74aa7a	0.95572627
179	0x3f7d1197	0.98854965
180	0x3f81a4eb	1.0128454
181	0x3f7ecd1a	0.9953171
182	0x3f7e1dd0	0.9926424
183	0x3f820f75	1.0160967
184	0x3f7776e9	0.9666582
185	0x3f802eed	1.0014321
186	0x3f81f9ad	1.015432
187	0x3f7665bc	0.96248984
188	0x3f791cdf	0.9730968
189	0x3f77edf7	0.9684748
190	0x3f8307af	1.023672
191	0x3f83ab4a	1.0286648
192	0x3f713606	0.9422306
193	0x3f76e1bc	0.96438193
194	0x3f7a76d4	0.9783757
195	0x3f7e1213	0.9924633
196	0x3f7ebb48	0.9950452
197	0x3f79ef96	0.97631204
198	0x3f76defa	0.96433985
199	0x3f7592ca	0.9592711
200	0x3f81bd4d	1.0135895
201	0x3f7e7203	0.9939272
202	0x3f83814a	1.0273831
203	0x3f7a98ba	0.9788929
204	0x3f80c0d7	1.005885
205	0x3f7b1151	0.980733
206	0x3f8066f4	1.0031419
207	0x3f7b7eae	0.9824017
208	0x3f7af89a	0.98035586
209	0x3f77440a	0.96588194
210	0x3f79c674	0.9756844
211	0x3f79e916	0.97621286
212	0x3f8492cc	1.0357299
213	0x3f800d61	1.0004083
214	0x3f7dd5ac	0.9915416
215	0x3f81958a	1.0123761
216	0x3f86d95e	1.0535085
217	0x3f826301	1.0186464
218	0x3f80d812	1.006594
219	0x3f80850e	1.0040605
220	0x3f7ec9ef	0.99526876
221	0x3f86dff2	1.0537093
222	0x3f765ae4	0.9623244
223	0x3f7d6962	0.98988926
224	0x3f89f7b4	1.0778718
225	0x3f7e5f4d	0.9936417
226	0x3f79cc69	0.9757753
227	0x3f88b932	1.0681517
228	0x3f80cd70	1.0062695
229	0x3f7cbc75	0.9872506
230	0x3f7cb57f	0.9871444
231	0x3f803c44	1.0018392
232	0x3f8320ac	1.0244346
233	0x3f85006e	1.0390756
234	0x3f831b1b	1.0242647
235	0x3f805d67	1.0028504
236	0x3f7d980b	0.99060124
237	0x3f846ee4	1.0346341
238	0x3f7f9405	0.99835235
239	0x3f77016d	0.9648655
240	0x3f797e6a	0.9745852
241	0x3f7f3247	0.9968609
242	0x3f80e771	1.007063
243	0x3f75da36	0.9603609
244	0x3f83486c	1.0256476
245	0x3f7f968a	0.9983908
246	0x3f80a2b4	1.0049653
247	0x3f7ea555	0.99471027
248	0x3f823a04	1.0173955
249	0x3f78132c	0.96904254
250	0x3f83487c	1.0256495
251	0x3f7cd0cf	0.98756117
252	0x3f7ebe10	0.9950876
253	0x3f83aabd	1.028648
254	0x3f81a447	1.0128258
255	0x3f781111	0.9690104

encoder.1.bias f4 [256]
0	0xbbe44bc8	-0.0069670416
1	0x3d41bd4e	0.047299676
2	0x3bcd9735	0.006274129
3	0x3da8116d	0.08206449
4	0x3a0247c0	0.0004969798
5	0x3cf857dc	0.030315332
6	0xbbd99adb	-0.0066407747
7	0x3c844592	0.016146455
8	0xbc281ce5	-0.010260795
9	0xbd1b841c	-0.037967786
10	0x3c8c0809	0.017093675
11	0xbcf00479	-0.029299008
12	0x3c04676c	0.008081298
13	0xbce445f6	-0.027865391
14	0xbd005649	-0.031332288
15	0xbd0a723f	-0.03380036
16	0xbd1b9928	-0.037987858
17	0xbd31ad91	-0.043378416
18	0xbc373aa5	-0.011183416
19	0xbd1919ee	-0.037378244
20	0x3d982b2b	0.07430109
21	0x3d98a1d6	0.07452743
22	0xbcdf2871	-0.027240964
23	0xbcf4f78c	-0.029903196
24	0x3dad4df1	0.08462132
25	0xbc996c30	-0.018728346
26	0x3c049f50	0.008094624
27	0x3cdbd51e	0.02683502
28	0x3d24fa82	0.040277965
29	0x3d61a6a3	0.055090558
30	0x3cb6f978	0.022335753
31	0xbbf26f3e	-0.007398515
32	0xbc9658e6	-0.018352937
33	0xbd241253	-0.040056538
34	0x3d455648	0.048177987
35	0x3c3ef008	0.011653908
36	0x3cb174fa	0.021662224
37	0x3c7de1f5	0.015495767
38	0x3cf5dfa4	0.030013867
39	0x3d6eebff	0.058330532
40	0x3d837740	0.064192295
41	0x3dc917e8	0.09819013
42	0x3b0af4ad	0.0021202967
43	0x39bec166	0.00036383717
44	0x3d5baa3b	0.05362914
45	0xbc0f26f7	-0.008737317
46	0xbcb33200	-0.021874428
47	0xbc0b1340	-0.008488476
48	0xbc77ef16	-0.015132686
49	0x3ce8ac56	0.028402489
50	0x3d30c48d	0.043156195
51	0xbcb0d548	-0.021586075
52	0x3ad261e4	0.0016050902
53	0x3d040686	0.032232784
54	0xbbfcda7a	-0.007716474
55	0xbc1dc1f3	-0.009628761
56	0x3cb466d0	0.022021681
57	0xbc8efd96	-0.017454904
58	0x3c341888	0.010992177
59	0x3c1fcab1	0.009752915
60	0x3bf9cd5e	0.0076233586
61	0xbd2f74c8	-0.04283598
62	0x3d977996	0.073962376
63	0x3c896bf3	0.016775107
64	0xbbd77d8f	-0.006576247
65	0x3c1cc7e1	0.009569139
66	0xbc3987b0	-0.011323854
67	0xbd75071e	-0.05982124
68	0x3c335dff	0.010947703
69	0xbcb8a01a	-0.02253728
70	0xbd2a9625	-0.041647095
71	0xbd1c2c31	-0.03812808
72	0x3d1ed629	0.038778458
73	0x3ce3e2b4	0.027818061
74	0xbc8ac823	-0.016941136
75	0xbc94311f	-0.018089829
76	0xbc7cd36e	-0.015431268
77	0xbaa25b65	-0.0012386857
78	0xbb1a7f50	-0.002357442
79	0x3c49f53f	0.012326538
80	0xbc9e43ab	-0.019319376
81	0x3c036937	0.008020691
82	0xbbb47262	-0.0055067996
83	0x3cdd4356	0.027009647
84	0x3b85b492	0.0040803635
85	0x3cf1d07a	0.029518355
86	0x3ccaf375	0.024774292
87	0x3d69843f	0.057010885
88	0xbd215806	-0.039390586
89	0xbca38590	-0.019961149
90	0xbc970b09	-0.01843788
91	0xbd09b085	-0.033615608
92	0x3d9f99e1	0.07793022
93	0xbc19c338	-0.009384923
94	0x39c6e45c	0.00037935644
95	0x3baa10c0	0.005189985
96	0xbcaf04d0	-0.0213646
97	0xbc5e171a	-0.0135553125
98	0x3d692bd6	0.05692657
99	0x3d336378	0.043796033
100	0xbaf7f884	-0.0018918668
101	0x3c89d079	0.01682304
102	0x3a9d0f81	0.001198277
103	0xbd0c48dc	-0.03424917
104	0xbd1797b7	-0.03700992
105	0xbcf2ed48	-0.02965416
106	0xbc41e898	-0.01183524
107	0x3d6778dc	0.056511745
108	0x3cba0914	0.022709407
109	0xbd653d83	-0.055966865
110	0xbb29e1b0	-0.0025921874
111	0xbcc58f4e	-0.024116185
112	0xbca527dd	-0.02016061
113	0xbcffb4ef	-0.031214206
114	0x3c71f0e6	0.014766907
115	0x3ca36b7e	0.019948717
116	0x3d4d3f01	0.050108913
117	0xbcbc9e71	-0.02302477
118	0x3d235733	0.03987808
119	0xbc0cb796	-0.008588692
120	0x3d701c67	0.058620837
121	0x3c79380c	0.0152111165
122	0xbca2db32	-0.019879911
123	0xbcdf76d5	-0.027278343
124	0x3cdf7fb4	0.027282573
125	0xbc52d70e	-0.012868656
126	0xbd0e338c	-0.034717128
127	0x3c95f808	0.018306747
128	0xbc3d292b	-0.01154546
129	0x3c19f3bc	0.00939649
130	0x3d614475	0.054996926
131	0xbc0822e6	-0.008309102
132	0x3d4f356c	0.050588056
133	0xbd1916cf	-0.037375268
134	0xbd221ecc	-0.03958015
135	0xbd4a6b60	-0.049418807
136	0xbc2224db	-0.009896482
137	0x3d9162a0	0.07098889
138	0xba1821ec	-0.00058033946
139	0xbc5f51ce	-0.013630344
140	0x3d0d4617	0.03449067
141	0xbcee2977	-0.029072506
142	0xbc9e1f49	-0.019302027
143	0xbc7c76d8	-0.015409194
144	0xbc7c0e51	-0.015384273
145	0xbc9ed213	-0.01938728
146	0xbc9e7081	-0.019340755
147	0x3d14db70	0.036342084
148	0x3bc911b7	0.006136145
149	0x3c99b927	0.018765045
150	0xbccce40c	-0.025011085
151	0x3bc331fd	0.005956887
152	0x3bc3c173	0.0059739887
153	0xbcc980f1	-0.024597617
154	0xbc690a9c	-0.014223721
155	0x3a9831c0	0.0011611506
156	0xbce04f84	-0.027381666
157	0xbcfa8a3f	-0.030583499
158	0xbb813f9e	-0.0039443513
159	0x3c615702	0.013753654
160	0xbd1a63e2	-0.037692912
161	0x3cbecd63	0.023291295
162	0x3c84b48a	0.016199369
163	0xbd2e46c3	-0.042547952
164	0x3c9d542f	0.01920518
165	0x3dc1e903	0.094682716
166	0xbd1d1e03	-0.0383587
167	0xbc4e1fcb	-0.012580822
168	0xbd51fc24	-0.05126585
169	0xbd14a9fb	-0.03629492
170	0xbc6b3ac3	-0.014357272
171	0x3ce13550	0.027491242
172	0x3d82cd8c	0.06386861
173	0x3cf18685	0.02948309
174	0xbd209ad5	-0.03921016
175	0xbcc21987	-0.023693813
176	0xbce4335b	-0.02785652
177	0xbc5afa04	-0.013365272
178	0xbafe3690	-0.0019394923
179	0xbcb7aa77	-0.022420151
180	0xbcf0a963	-0.029377645
181	0xbd358bf8	-0.044322938
182	0xbb6c1645	-0.0036024016
183	0x3ccf9bbc	0.025342815
184	0xbcefaff0	-0.029258698
185	0x3d89293b	0.06697317
186	0x3bf2918d	0.007402605
187	0xbc8f53e9	-0.017496066
188	0xbcee2112	-0.029068504
189	0xbc2b3655	-0.0104499655
190	0x3d61779b	0.055045705
191	0xbca328f9	-0.019916998
192	0xbd3dd3d7	-0.046344604
193	0xbd31fe28	-0.043455273
194	0xbcc4cd7f	-0.02402377
195	0x3c90e43c	0.017686956
196	0xbd18bbdd	-0.037288535
197	0x3cd1a392	0.025590692
198	0xbd22d832	-0.03975696
199	0xbd75eb91	-0.060039107
200	0x3d2bf1e4	0.04197873
201	0x3c4c25a4	0.012460146
202	0x3b5a9947	0.003335552
203	0x3d4653c8	0.048419744
204	0xbb9cf700	-0.004790187
205	0xbca87e9b	-0.020568183
206	0x3d2f9209	0.04286388
207	0xbd4e834e	-0.05041819
208	0xbbade836	-0.0053072227
209	0xbc45bd5e	-0.012069074
210	0x3b8c1056	0.0042744083
211	0xbcff8a7b	-0.031193962
212	0x3d364100	0.044495583
213	0x3d072246	0.03299167
214	0xbc83478f	-0.016025333
215	0x3caf4fb0	0.021400303
216	0x3d08b1db	0.03337274
217	0x3d5a016d	0.053224016
218	0x3d393c15	0.045223314
219	0x3da3a086	0.07989602
220	0xbb8eddb4	-0.004359925
221	0x3d45c8d4	0.048287228
222	0xbcb153dc	-0.021646433
223	0xbcb04247	-0.021515979
224	0x3c617b19	0.013762259
225	0xbc473a40	-0.012159884
226	0x3b57c732	0.0032925126
227	0x3d85717b	0.06515785
228	0x3c1fb6fe	0.009748219
229	0xbcfa8b14	-0.030583896
230	0xbd0f83e1	-0.03503788
231	0x3bd597b1	0.006518327
232	0x3d210c5e	0.039318435
233	0xbc7bd105	-0.015369658
234	0x3bff524f	0.0077917944
235	0xbcce404a	-0.02517714
236	0xbcf65833	-0.030071354
237	0x3d85cb95	0.06532971
238	0xbd32cbfa	-0.04365156
239	0xbccaf21b	-0.024773648
240	0x3cee2d42	0.029074315
241	0xbcce50a6	-0.02518494
242	0x3d708e16	0.058729254
243	0xbd6ed3c3	-0.05830742
244	0x3ca69608	0.020335212
245	0x3b91f868	0.004454661
246	0xbad083b2	-0.0015908389
247	0xbaf18610	-0.0018426795
248	0x3d13cd04	0.03608419
249	0xbd387965	-0.045037646
250	0x3aefc052	0.0018291569
251	0xbcd35c4a	-0.025800843
252	0xbd8562bd	-0.065129735
253	0xbc057ad5	-0.008146961
254	0xbd351508	-0.04420951
255	0xbd30301f	-0.04301464

encoder.1.running_mean f4 [256]
0	0xc13306a0	-11.189117
1	0xc163d697	-14.23989
2	0xc1db441c	-27.408257
3	0x407dee8e	3.9676852
4	0x41e8cd78	29.100327
5	0x402e5ba7	2.724344
6	0xc1f18088	-30.18776
7	0x41290a17	10.564963
8	0xc18b14ae	-17.385098
9	0xc18366b2	-16.425144
10	0xc1e7ee64	-28.991402
11	0x4128574d	10.521314
12	0xc032e436	-2.795179
13	0xc1b71cec	-22.889122
14	0xc213e470	-36.973083
15	0xc1a6e62e	-20.862392
16	0xc09e9482	-4.9556284
17	0x4025c39c	2.590064
18	0xc0865897	-4.198314
19	0xc1677c66	-14.467871
20	0x4197bbf4	18.966774
21	0xc1841046	-16.507946
22	0xbfcd0b10	-1.6019001
23	0xbf57b670	-0.8426275
24	0x41a03f77	20.030989
25	0xc09f1732	-4.9715815
26	0xc153c7ff	-13.236327
27	0xbf1f58d9	-0.62244946
28	0x3fa6f571	1.3043653
29	0x416161d0	14.08638
30	0x40c3e4bf	6.121673
31	0x3fb2e1a1	1.3975106
32	0x3f41f2e4	0.75761247
33	0xc18d10a3	-17.633123
34	0x40d604b8	6.688076
35	0x3fcc85fd	1.597839
36	0xc1add86b	-21.730673
37	0x420363ce	32.847466
38	0x40cce401	6.4028325
39	0x3f84158e	1.0319078
40	0x41719205	15.098149
41	0x40add4fe	5.43225
42	0xc179e96e	-15.61949
43	0xc171bce5	-15.108617
44	0x407238b5	3.7847111
45	0x4007894d	2.1177552
46	0xbff3216e	-1.8994577
47	0xc13f8d28	-11.971962
48	0xc193e62a	-18.487385
49	0x400873c4	2.1320658
50	0xc0497627	-3.1478364
51	0xc15b94dd	-13.723844
52	0x40df5eee	6.980338
53	0xc0f8ed78	-7.778988
54	0xc14e2162	-12.88315
55	0xc1c21cdc	-24.264091
56	0x40d3f332	6.623437
57	0xc1c22d78	-24.272202
58	0xc1a1749f	-20.181944
59	0xc0819ca2	-4.05037
60	0x40c16049	6.0430036
61	0x413d615e	11.836271
62	0x417b08b8	15.689629
63	0xc15de7a7	-13.869056
64	0xbfb0cf60	-1.3813286
65	0x3f9a23cd	1.2042176
66	0xc17008bc	-15.002132
67	0xc1988d3b	-19.06896
68	0x416f4eaa	14.956705
69	0x419eb277	19.837141
70	0xc107b57f	-8.481811
71	0xbf9939a5	-1.1970717
72	0xc18ac11b	-17.34429
73	0x41446aac	12.276043
74	0xc14c2bce	-12.7606945
75	0xc08b69cd	-4.356665
76	0xc10fc43e	-8.985411
77	0xc08539a8	-4.163288
78	0x403eaae4	2.9791803
79	0x40b055c3	5.510469
80	0xc07769a8	-3.8658237
81	0xc123c03b	-10.234431
82	0x413f6784	11.962772
83	0x40010371	2.015835
84	0x3e8f8de4	0.2803794
85	0xc1dd5adb	-27.669363
86	0xc0fa4ce6	-7.821887
87	0xc19114c4	-18.13514
88	0xc15df657	-13.872642
89	0x40dc0bc3	6.8764358
90	0xc148a5ac	-12.540447
91	0x3f9d15d1	1.2272283
92	0x41b7c270	22.96994
93	0x401c8739	2.4457533
94	0x41a8197c	21.012444
95	0xc0c46589	-6.1373944
96	0x4099c06e	4.80474
97	0xc1930e70	-18.38205
98	0x40f8e556	7.777995
99	0xc19d21af	-19.641447
100	0x414a5b30	12.647263
101	0x41061096	8.379049
102	0xc1d45910	-26.543488
103	0xc097aca1	-4.739823
104	0xc134d52b	-11.302043
105	0xc1c0d3c5	-24.103403
106	0xc08dadcb	-4.427465
107	0xc182adfe	-16.334957
108	0x41af4428	21.90828
109	0xc1e72b4b	-28.89614
110	0x4027f621	2.6243975
111	0x3ebe563b	0.37175164
112	0xc187c1cf	-16.969633
113	0xc20a2ba9	-34.542637
114	0x41b08ca7	22.068678
115	0xc0f52ea6	-7.6619444
116	0xc1630c3f	-14.19049
117	0xc1468f27	-12.409949
118	0xc0239662	-2.5560536
119	0xc1b92a8a	-23.145771
120	0x413ff07e	11.996214
121	0xc09e4525	-4.9459405
122	0xbf864f6b	-1.0492986
123	0xc115bb70	-9.358261
124	0xc1c898f1	-25.074678
125	0xc1999cdb	-19.20159
126	0xc103c422	-8.235384
127	0x41bb6e4d	23.428858
128	0x41bb5a28	23.419022
129	0x4101aadc	8.104214
130	0x411a3b40	9.639465
131	0xc092f8a0	-4.5928497
132	0xc1a8b373	-21.087622
133	0x40f5473d	7.664946
134	0x4139813c	11.594051
135	0x4136aeca	11.417673
136	0xc08c89e6	-4.3918333
137	0x40c30c30	6.0952377
138	0x416b8095	14.718892
139	0x40a5d137	5.181789
140	0xc1b1413b	-22.15685
141	0xc18534a7	-16.65071
142	0x3ed08f51	0.40734342
143	0x416bfb54	14.748859
144	0x4006ca36	2.106092
145	0x414e7e28	12.9058
146	0xc126bac4	-10.420597
147	0x40ab9594	5.362009
148	0xbe2d8e85	-0.16948898
149	0x41228a92	10.158831
150	0xbfb8b2e7	-1.4429597
151	0xc0b52f8e	-5.662055
152	0xc11c6895	-9.775533
153	0xbf381777	-0.71910805
154	0xc1416d4c	-12.089184
155	0xc1b73701	-22.901857
156	0xc0562f49	-3.346636
157	0xc13b3b3a	-11.70196
158	0xbec45527	-0.38346216
159	0xc01e80e7	-2.4766176
160	0xc18f0cca	-17.881245
161	0x41026d26	8.151648
162	0xc1894273	-17.157446
163	0xc090faf1	-4.5306325
164	0x41994f5f	19.163755
165	0x4139eb6a	11.619974
166	0xc19b5e20	-19.42096
167	0x40a0d2b7	5.025722
168	0xc1264597	-10.39199
169	0x4189758e	17.1824
170	0xc14e171e	-12.880644
171	0x3ebeb0d5	0.37244287
172	0x412425d1	10.2592325
173	0xc0cae03d	-6.339873
174	0x417811f0	15.504379
175	0x401501d0	2.3282356
176	0x411ca170	9.789413
177	0xc14af47c	-12.684689
178	0x41b44304	22.532722
179	0xc0928c4b	-4.5796256
180	0xc16936c5	-14.575871
181	0xbf33c5d4	-0.70223737
182	0x410a0f53	8.628741
183	0x40a37847	5.1084323
184	0x41553cba	13.327326
185	0x411dc42e	9.860395
186	0x41199771	9.599473
187	0xbe8a4234	-0.27003634
188	0x40cf485d	6.4775834
189	0x41b41b49	22.513323
190	0x41bc94ed	23.572718
191	0xc186ad87	-16.83473
192	0x4050a8aa	3.2602944
193	0xc1b54ab2	-22.661472
194	0x4149c5af	12.610763
195	0x403fc5b3	2.9964416
196	0xc1d92e34	-27.14756
197	0x40c5ffc1	6.18747
198	0xc1a4a43e	-20.580196
199	0xc0b7eb0a	-5.7474413
200	0x417a6bd8	15.651329
201	0xc149679c	-12.587795
202	0xbe5fd220	-0.218575
203	0x41175d1e	9.460234
204	0xc00744fb	-2.1135852
205	0xc12fcc6d	-10.987409
206	0x40cf7ea9	6.4842114
207	0xc1421edb	-12.132533
208	0x419ff806	19.996105
209	0x419ac564	19.346382
210	0x3fc85635	1.5651308
211	0xbfbcbc00	-1.4744873
212	0xc1a3c802	-20.47266
213	0x3fc9da88	1.5769815
214	0x40d7f0bd	6.748137
215	0x41e6aef8	28.835434
216	0xc1ca695e	-25.301449
217	0x40c0e736	6.028224
218	0x413db6b3	11.857104
219	0x4167969f	14.474273
220	0x402ebc49	2.730242
221	0xc130ed6f	-11.057967
222	0x41281051	10.5039835
223	0x41c77e1a	24.936573
224	0xc199c522	-19.221256
225	0x411644a2	9.391756
226	0x41c4c5ec	24.596642
227	0xc1ef780f	-29.933622
228	0xc1dd31be	-27.649288
229	0xc186c824	-16.847725
230	0x40048c37	2.071058
231	0xc0f6bf3e	-7.710845
232	0x414721dd	12.445767
233	0xc1af6eec	-21.929161
234	0xbfd2c5b4	-1.6466584
235	0xc1d2a386	-26.329845
236	0xc13da971	-11.853868
237	0x41871da5	16.889475
238	0xc12a557f	-10.645873
239	0xbfbec363	-1.4903377
240	0x412ee0b4	10.929859
241	0xc17f2af5	-15.947988
242	0x416fbda6	14.983801
243	0xc09d5218	-4.916271
244	0x40cd38ad	6.4131684
245	0xc11e89c6	-9.908636
246	0xc07e5356	-3.9738364
247	0x41b69c2a	22.826252
248	0xc110f302	-9.059328
249	0xc0015367	-2.0207155
250	0x3f4e2978	0.80532026
251	0x3f81c502	1.0138247
252	0xc0573fd9	-3.363272
253	0xc14d00b6	-12.812674
254	0xc1d36bd2	-26.427647
255	0xc087a169	-4.2384534

encoder.1.running_var f4 [256]
0	0x430c06ad	140.02608
1	0x42fb265d	125.57493
2	0x42c7c5cf	99.886345
3	0x4201f2ec	32.48723
4	0x42d69c32	107.30507
5	0x42093110	34.297913
6	0x43451fd7	197.12437
7	0x4262fd4b	56.747356
8	0x41ec940f	29.572294
9	0x422a456a	42.567787
10	0x43df720b	446.89096
11	0x423a57e7	46.585842
12	0x43500572	208.02127
13	0x42a9564f	84.66857
14	0x4337e68d	183.90059
15	0x425af84b	54.742474
16	0x40ee539a	7.4477053
17	0x42b5b2a6	90.84892
18	0x4141c10d	12.109632
19	0x421bad81	38.919437
20	0x428d9645	70.793495
21	0x42b29393	89.28823
22	0x42dcce43	110.402855
23	0x42f84cc7	124.149956
24	0x432806c3	168.02641
25	0x418cc0a5	17.594065
26	0x43301367	176.07579
27	0x41bd5491	23.666292
28	0x41c0520a	24.040058
29	0x4252dfb1	52.71845
30	0x418eead9	17.864672
31	0x42139098	36.891205
32	0x420a21ab	34.53288
33	0x4234fb75	45.245564
34	0x429af6cd	77.48203
35	0x41cc82b9	25.56383
36	0x4329a0b5	169.62776
37	0x432cacd1	172.67506
38	0x420fa069	35.90665
39	0x41d75be5	26.91987
40	0x42d38ed0	105.77893
41	0x419c5fbc	19.546745
42	0x43181e45	152.11824
43	0x4303cc89	131.79897
44	0x421c06ec	39.00676
45	0x40671928	3.6109104
46	0x41220729	10.126748
47	0x42815621	64.66822
48	0x430482d2	132.51102
49	0x4303bf9f	131.74852
50	0x430d72ce	141.44846
51	0x420bc5a7	34.94302
52	0x4213e67a	36.975075
53	0x424f0c78	51.762177
54	0x428c18b2	70.04823
55	0x43a4283a	328.31427
56	0x42ea9614	117.29312
57	0x42ac57a4	86.17117
58	0x42bc8ef4	94.279205
59	0x42c699be	99.30028
60	0x42817bb9	64.741646
61	0x42008ab3	32.13545
62	0x4285e213	66.94155
63	0x42f8dce0	124.4314
64	0x4270722a	60.11149
65	0x42ff8004	127.75003
66	0x438fa31d	287.27432
67	0x427dd8c7	63.461697
68	0x424e8bd6	51.63656
69	0x4222c4c2	40.692146
70	0x412a0df0	10.628403
71	0x42b44b5f	90.14721
72	0x43383607	184.21104
73	0x4235a339	45.409397
74	0x4282bd99	65.37031
75	0x4144b60b	12.294444
76	0x42f20b9f	121.0227
77	0x42c749a8	99.64386
78	0x41b6f37a	22.868885
79	0x43202499	160.14296
80	0x4293f2bd	73.9741
81	0x424145a6	48.318016
82	0x42b506b5	90.5131
83	0x421ce6ab	39.22526
84	0x428641b6	67.12834
85	0x439b2a6d	310.33145
86	0x4241044d	48.2542
87	0x43359a2c	181.60223
88	0x427f1166	63.76699
89	0x40f0819d	7.515822
90	0x42e87962	116.237076
91	0x422fae7a	43.920387
92	0x4328a3af	168.63939
93	0x421973c0	38.363037
94	0x4292445d	73.13352
95	0x4201d741	32.46021
96	0x41db31c4	27.3993
97	0x429bbebd	77.872536
98	0x422bedbe	42.98217
99	0x430a0015	138.00032
100	0x41db0dc3	27.38172
101	0x417c49f7	15.768058
102	0x430e425b	142.2592
103	0x418fa738	17.95665
104	0x41b8e9b4	23.114113
105	0x4326dc9a	166.86172
106	0x4219f980	38.493652
107	0x435ce933	220.91093
108	0x429b5a54	77.67642
109	0x42d1a9f7	104.83196
110	0x42c7e2bc	99.94284
111	0x4314cf85	148.81062
112	0x42b19b58	88.803406
113	0x4328b0e4	168.69098
114	0x42b7f391	91.975716
115	0x4306e3d4	134.88995
116	0x42b7bf7d	91.874
117	0x418fb8b2	17.965183
118	0x42447293	49.11189
119	0x42c8ccc7	100.399956
120	0x42bca0f5	94.31437
121	0x42878f70	67.78015
122	0x42e982f1	116.755745
123	0x420f2570	35.78656
124	0x4334802d	180.50069
125	0x428250e4	65.15799
126	0x430688c5	134.53426
127	0x42ab7ae5	85.74003
128	0x42876d3f	67.71337
129	0x42332e07	44.79495
130	0x42d75069	107.65705
131	0x41c1a12e	24.203701
132	0x431ac17c	154.7558
133	0x422ec0db	43.688335
134	0x42ccc87e	102.39159
135	0x421114a2	36.27015
136	0x421e79c5	39.618916
137	0x424f5ce5	51.840717
138	0x42250bb3	41.261425
139	0x41abc7e9	21.472612
140	0x437273ab	242.45183
141	0x42c4c9d3	98.39419
142	0x419588a9	18.691729
143	0x4296a71c	75.326385
144	0x41cd3f7b	25.655996
145	0x42944868	74.14142
146	0x42b62831	91.0785
147	0x42c25a5f	97.176506
148	0x410c7781	8.779176
149	0x431b26e2	155.15189
150	0x429116f2	72.544815
151	0x434130f4	193.19122
152	0x4392b8ac	293.44275
153	0x42f8b556	124.35417
154	0x42eb1704	117.54495
155	0x432172e1	161.44875
156	0x436cd5a8	236.8346
157	0x414e7426	12.903357
158	0x42f779fb	123.73824
159	0x43673129	231.19203
160	0x42d2943f	105.28954
161	0x4330524a	176.32144
162	0x4326bb40	166.73145
163	0x413f4dae	11.956465
164	0x422159f3	40.33784
165	0x428bbfee	69.87486
166	0x422a7971	42.618595
167	0x4290d33d	72.412575
168	0x418f157c	17.88549
169	0x428d4828	70.64093
170	0x42c52cbe	98.58739
171	0x41163728	9.388466
172	0x4271fccb	60.49687
173	0x42a082e5	80.25565
174	0x41c157ce	24.167873
175	0x42e0eee5	112.46659
176	0x424e25d1	51.53693
177	0x4268b16b	58.17326
178	0x4257bc66	53.933983
179	0x4301a783	129.65434
180	0x41bc3130	23.524017
181	0x41c82ec1	25.02283
182	0x4294bcc8	74.36871
183	0x42f8eee4	124.46658
184	0x42c15572	96.666885
185	0x421f2ac6	39.79177
186	0x4236e048	45.719025
187	0x42be7af9	95.24018
188	0x4280f893	64.4855
189	0x429786cc	75.763275
190	0x42f0dfa0	120.43677
191	0x4374f20b	244.94548
192	0x4176f0a0	15.433746
193	0x429fa682	79.82521
194	0x4281a93f	64.83056
195	0x42d9d469	108.91486
196	0x42dfb6de	111.85716
197	0x4292bef0	73.372925
198	0x42be29c4	95.08157
199	0x40d6d6d7	6.7137256
200	0x43a97c4f	338.97116
201	0x4346d213	198.8206
202	0x430511cc	133.06952
203	0x430b100f	139.06273
204	0x42fc3752	126.10805
205	0x419f8fad	19.945154
206	0x42e2da76	113.42668
207	0x41ec0071	29.500216
208	0x4290f9ba	72.48775
209	0x429e0031	79.000374
210	0x42b05ac6	88.17729
211	0x40bec654	5.96171
212	0x43a1a177	323.26144
213	0x42a13a91	80.61439
214	0x425917f4	54.27339
215	0x437034f2	240.20682
216	0x439c1230	312.1421
217	0x41e06035	28.046976
218	0x4367791b	231.47307
219	0x4303f94c	131.97382
220	0x42e3dbe0	113.92944
221	0x424aa387	50.659695
222	0x4144a828	12.291054
223	0x42b698ad	91.298195
224	0x42736a85	60.854023
225	0x42cf3913	103.61147
226	0x433d203c	189.12592
227	0x43e5847a	459.03497
228	0x430789e8	135.5387
229	0x4279745a	62.363625
230	0x416ea869	14.916116
231	0x419610fb	18.758291
232	0x42d1cc22	104.8987
233	0x42db1c3f	109.55517
234	0x4270f717	60.2413
235	0x429a57ca	77.17146
236	0x41ea22db	29.26702
237	0x4395c066	299.5031
238	0x42323d09	44.559605
239	0x4210f248	36.236603
240	0x435caeff	220.68358
241	0x42631757	56.772793
242	0x428f637d	71.69431
243	0x412907aa	10.564371
244	0x4170f685	15.060185
245	0x42a26b9e	81.21019
246	0x42f3c377	121.88177
247	0x4267fc07	57.99612
248	0x4349e65d	201.89986
249	0x410207c3	8.126895
250	0x43181079	152.06435
251	0x4192ac98	18.334274
252	0x42e1d810	112.922
253	0x41f08bb4	30.068214
254	0x431f2536	159.14536
255	0x42f7f29c	123.97385

encoder.4.weight f4 [128, 256]
0	0x3c9f3964	0.019436546
1	0xbdc2e311	-0.09515966
2	0xbd8b7090	-0.06808579
3	0xbd5327be	-0.051551573
4	0x3d2628cc	0.04056625
5	0x3b801f15	0.0039099553
6	0x3d17e5fe	0.037084572
7	0x3aed957c	0.0018126215
8	0xbd36460b	-0.044500392
9	0x3d665bdd	0.05623995
10	0xbdd4b7e3	-0.10386636
11	0x3ce13a82	0.027493719
12	0x3cd09e0b	0.025465986
13	0x3cb5f64f	0.022212176
14	0xbc3a81aa	-0.011383453
15	0xbc70a352	-0.014687376
16	0xbda34ff8	-0.07974237
17	0x3a014900	0.00049318373
18	0x3cbaa9ea	0.0227861
19	0x3d13e891	0.036110464
20	0x3c8d56c3	0.017253285
21	0xbd9d42e4	-0.07678774
22	0xbc12dbc0	-0.008963525
23	0xbd0f82eb	-0.035036962
24	0x3d0250b4	0.031815246
25	0x3b63fed6	0.0034789345
26	0xbdbb908d	-0.0915843
27	0xbb2f26a4	-0.0026725912
28	0xbd291782	-0.041282184
29	0x3d99c190	0.07507622
30	0x3cf4fe96	0.029906552
31	0xbd063942	-0.03276945
32	0xbd4c50d5	-0.049881775
33	0x3c08d644	0.008351866
34	0x3d03097c	0.031991467
35	0x3d278b8a	0.04090456
36	0xbd97fed3	-0.07421651
37	0xbd09a20d	-0.03360181
38	0xbcffcef3	-0.03122661
39	0x3bcbe7ec	0.0062227156
40	0xbd104960	-0.035226226
41	0x3d086458	0.03329882
42	0x3c06a5b7	0.00821822
43	0xbcd4a459	-0.025957273
44	0xbcaf4ec8	-0.02139987
45	0xbcb65942	-0.022259358
46	0x3c0d10b0	0.008609936
47	0xbd388251	-0.045046154
48	0xbdaf6022	-0.08563258
49	0xbd33d508	-0.043904334
50	0xbd30d169	-0.04316846
51	0xbce70011	-0.028198274
52	0x3ceb29ae	0.028706398
53	0xbd5aec3a	-0.05344794
54	0xbd5f43ba	-0.05450795
55	0xbdbc150a	-0.091837004
56	0xbd44fce9	-0.048092756
57	0x3d12dcaf	0.03585499
58	0xbad332f2	-0.0016113205
59	0xbd4446b1	-0.04791898
60	0xbc44a739	-0.01200276
61	0x3d2df880	0.042473316
62	0xbc7da7fe	-0.015481947
63	0xbdb4b4e3	-0.08823564
64	0x3b35503f	0.0027666239
65	0xbd352174	-0.044221357
66	0x3c743b5e	0.014906732
67	0xbc2b3939	-0.010450655
68	0xbbf23c57	-0.007392447
69	0x3d3c87b5	0.046027858
70	0x3d0457f5	0.032310445
71	0xbd041622	-0.03224767
72	0xbdbba48c	-0.09162244
73	0x3d324c96	0.04353007
74	0x3c809328	0.01569517
75	0xbd19155c	-0.037373886
76	0xbda09057	-0.07840031
77	0xbc35f05b	-0.0111046685
78	0xbcb5f488	-0.022211328
79	0xbcc19060	-0.023628414
80	0xbc8fc8d3	-0.017551815
81	0xbd59c0e0	-0.053162456
82	0x3b7facdd	0.0039012947
83	0xbb96411d	-0.004585399
84	0xbc6a6a3d	-0.014307556
85	0xbdc30fd9	-0.09524507
86	0x3b2ca7a3	0.0026345036
87	0x3a868b32	0.0010264872
88	0x3d5a33b0	0.05327195
89	0x3bf07031	0.007337593
90	0xbd9ea65c	-0.07746574
91	0xbc8fad40	-0.017538667
92	0x3d055edc	0.032561168
93	0xbd4bfbea	-0.04980079
94	0xbd817518	-0.06321162
95	0xbcbd3d8f	-0.023100642
96	0xbd326186	-0.043550037
97	0x3c72d355	0.014820893
98	0x3ccd69f9	0.025074946
99	0xba8888e9	-0.0010416779
100	0xbd260f72	-0.040542074
101	0x3c388cea	0.011264065
102	0xbd8bb18f	-0.06820976
103	0xbd2c0353	-0.041995358
104	0xbced3342	-0.028955106
105	0x3b4e30eb	0.0031462263
106	0x3c4b83f2	0.012421595
107	0xbc51eeef	-0.012813314
108	0xbbf52fd8	-0.00748251
109	0x3d3682bb	0.044558268
110	0xbd8cf243	-0.06882145
111	0xbccb24ac	-0.02479776
112	0xbd5639e5	-0.052301306
113	0xbcca8402	-0.02472115
114	0x3cd12445	0.02552999
115	0xbd95e114	-0.07318321
116	0xbd0b18ea	-0.033959307
117	0x3b90d060	0.0044193715
118	0xbd6915f4	-0.0569057
119	0xbd8dbbe2	-0.069206014
120	0x3cc93eca	0.024566073
121	0xbd00f649	-0.031484876
122	0x3d6090ba	0.054825522
123	0x3ae8b98e	0.0017755495
124	0xbdd21c14	-0.10259262
125	0xbd12fb5f	-0.035884257
126	0xbc5e862f	-0.013581797
127	0xbd0efe95	-0.034910757
128	0x3c33596a	0.010946611
129	0xbd98d4a9	-0.07462437
130	0xbcc60009	-0.024169939
131	0xbc0214be	-0.007939516
132	0xbd1e077b	-0.038581353
133	0xbbb84c13	-0.005624303
134	0x3ce3579b	0.027751734
135	0xbc29e6da	-0.010369981
136	0xbd0e1219	-0.034685228
137	0x3b80b22e	0.0039274907
138	0xbd01afcc	-0.031661794
139	0x3d9e9db6	0.07744925
140	0x3c24d5d5	0.010060747
141	0x3cf09f48	0.029372826
142	0xbc457f09	-0.012054213
143	0x3d2cd536	0.04219552
144	0x3cb8a37d	0.022538895
145	0x3cb6a3f1	0.02229497
146	0xbd728b34	-0.059214786
147	0xbca4f921	-0.020138325
148	0xbd08484f	-0.033272084
149	0x3aa3c6bd	0.0012495142
150	0xbb241adf	-0.002504043
151	0xbdcfa449	-0.10138757
152	0x3c2bcc5e	0.010485737
153	0x3d50c07c	0.050964817
154	0xbc27e1b7	-0.010246686
155	0xbcefef92	-0.02928904
156	0xbd3156e2	-0.04329575
157	0x3d2d356e	0.042287283
158	0xbd7650e9	-0.060135756
159	0x3ccc271b	0.02492099
160	0xbcc2e20d	-0.02378943
161	0xbbbc8f69	-0.0057544005
162	0xbd4271dc	-0.047471866
163	0x3d46ad34	0.048505023
164	0xb9ece66b	-0.00045185102
165	0x3d0382cd	0.032107163
166	0xbcbe22d1	-0.023209961
167	0xbcefdcce	-0.029280093
168	0x3d4a9d3c	0.049466357
169	0xbce23562	-0.027613346
170	0x3d85422a	0.065067604
171	0x3cf85d35	0.030317882
172	0x3c8c5812	0.017131839
173	0xba802170	-0.000977559
174	0x3cc9a177	0.024613125
175	0x3d50b7b4	0.050956443
176	0xbd7dac2d	-0.061931778
177	0xbd8a3694	-0.06748691
178	0xbc7c38e7	-0.015394426
179	0xbc600738	-0.013673596
180	0x3bdbef58	0.0067118816
181	0xbd134873	-0.035957765
182	0xbdb40305	-0.087896384
183	0x3d18bfbf	0.03729224
184	0x3bea254f	0.007145561
185	0xbc01bbb6	-0.007918289
186	0xbda8f196	-0.08249204
187	0xbbea7592	-0.0071551288
188	0xbc999105	-0.018745909
189	0xbd02b816	-0.03191384
190	0x3d49f372	0.049304433
191	0xbd063fe0	-0.03277576
192	0x3d7bb852	0.06145508
193	0xbcf1e0d8	-0.02952616
194	0xbaa0fc09	-0.0012282144
195	0x3c18ff2a	0.00933818
196	0xbcb861a2	-0.022507492
197	0x3d477776	0.04869791
198	0x3caffda0	0.021483243
199	0x3bda8583	0.006668748
200	0xbb9519e8	-0.0045502074
201	0x3c7e92e1	0.015537948
202	0xbd075d5e	-0.033048026
203	0x3c3ae504	0.011407141
204	0x3c1c566d	0.00954209
205	0xbd11c761	-0.035590533
206	0xbc1e8535	-0.009675314
207	0xbd5a3960	-0.053277373
208	0xbd07d24e	-0.033159547
209	0xbd20a530	-0.039220035
210	0xbb604e72	-0.0034226445
211	0xbc813c43	-0.015775805
212	0xbd961930	-0.07329023
213	0x3d485dd1	0.048917595
214	0xbd196f95	-0.03745993
215	0xbd1ed242	-0.038774736
216	0xbd9691a4	-0.073519975
217	0x3cfc986f	0.030834405
218	0xbd1a2525	-0.03763308
219	0x3d37649d	0.044773687
220	0x3c8c1c1d	0.01710325
221	0xbd2f6836	-0.042823993
222	0x3d134312	0.035952635
223	0x3d462a9f	0.04838049
224	0xbd6052b5	-0.054766376
225	0xbda00497	-0.078133754
226	0x3c85f6ae	0.016352978
227	0x3b79e235	0.0038129215
228	0xbcaa358d	-0.020777488
229	0x3ce4a66b	0.027911386
230	0x3c971d60	0.018446624
231	0xbc4bbb60	-0.01243481
232	0x3d68575c	0.056723937
233	0xbd2e9368	-0.042621046
234	0x3d83630f	0.06415378
235	0x3c0e9431	0.008702324
236	0xbcc1da43	-0.023663646
237	0x3d6710a4	0.056412354
238	0xbb7e9ab0	-0.0038849525
239	0xbcc17b6b	-0.02361842
240	0x3d3d04d8	0.046147197
241	0x3c1afafa	0.009459252
242	0x3d0a00bd	0.03369211
243	0x3cfacfae	0.030616608
244	0x3d83dff1	0.06439198
245	0x3d8b04ea	0.06788047
246	0xbdb1c747	-0.08680587
247	0xbc8403cd	-0.016115094
248	0xbdc3f37f	-0.095679276
249	0xbd5f18f3	-0.054467153
250	0xbc500072	-0.012695419
251	0xbd188319	-0.0372344
252	0xbc990439	-0.018678771
253	0x3ce1c58a	0.027560014
254	0xbd83a598	-0.06428069
255	0xbbe1c797	-0.006890248

encoder.4.bias f4 [128]
0	0xbc5f4515	-0.01362731
1	0xbd0823e5	-0.033237357
2	0xbd4eba28	-0.0504705
3	0x3d922523	0.071359895
4	0x3cbc9ab6	0.02302299
5	0x3cf8df9a	0.030380059
6	0xbc4307c9	-0.011903712
7	0xbc83ae82	-0.016074423
8	0x3d2978ee	0.041375093
9	0xbd299643	-0.041403066
10	0xbc60c033	-0.013717699
11	0x3a89631b	0.0010481806
12	0x3cf9b071	0.030479642
13	0xbaafe08d	-0.0013418362
14	0x3d5e8065	0.054321665
15	0x3c6fbe0d	0.014632714
16	0x3bd4d660	0.006495282
17	0x3cbdc369	0.023164468
18	0x3d5b665d	0.053564418
19	0x3d7c835a	0.061648704
20	0x3d1040ce	0.035218053
21	0xbd88e971	-0.066851504
22	0x3d358818	0.044319242
23	0x3d672f5d	0.056441654
24	0xbd91645b	-0.070992194
25	0xbcda4e4a	-0.02664866
26	0xbb822435	-0.0039716014
27	0x3cb90722	0.022586409
28	0xbb6c636d	-0.0036070005
29	0x3d7a3e2f	0.06109446
30	0x3cd8cc72	0.026464675
31	0xbd5257f0	-0.051353395
32	0x3d34f97e	0.044183247
33	0x3d387ec9	0.045042787
34	0xbd739c47	-0.05947521
35	0x3cccece2	0.025015298
36	0x3c75f900	0.0150129795
37	0xbc661b69	-0.014044621
38	0xbc91912f	-0.017769424
39	0x3c61e076	0.013786426
40	0xbd426b1e	-0.047465436
41	0xbd0eb50e	-0.034840636
42	0xbbec7baa	-0.0072168903
43	0xbd7f098a	-0.062264957
44	0x3d160cbc	0.03663324
45	0x3d683f89	0.056701217
46	0x3d291fd4	0.04129012
47	0xbd253ef9	-0.04034326
48	0x3b647c84	0.0034864256
49	0x3cf219fd	0.029553408
50	0xbd17b7c8	-0.0370405
51	0x3b90c3f6	0.0044178916
52	0xbd04d8a3	-0.032433163
53	0x3b6fee05	0.0036610377
54	0xbd4d2613	-0.05008514
55	0xbb7b26a4	-0.0038322592
56	0xbd18e158	-0.03732428
57	0x3d178930	0.036996067
58	0x3d3a28fd	0.045449246
59	0xbc03e3fc	-0.008049961
60	0x3d2842e0	0.041079402
61	0x3ae2e76c	0.0017311401
62	0x3d5148d7	0.051094856
63	0xbc056844	-0.008142535
64	0xbc9bdb69	-0.019025521
65	0x3d094212	0.033510275
66	0x3d5c2390	0.053744853
67	0x3c70a4f8	0.014687769
68	0x3c824019	0.015899705
69	0xbbd665cb	-0.0065428964
70	0xbd73ef86	-0.0595546
71	0x3c05c1f5	0.008163919
72	0x3ac4e181	0.0015020819
73	0x3cbbc05d	0.022918874
74	0x3d4faf8b	0.05070452
75	0xbd306f55	-0.043074924
76	0xbd14f47c	-0.03636597
77	0x3d2283e0	0.039676547
78	0x3d2f8eba	0.042860724
79	0xbd8b6193	-0.0680572
80	0x3d1dfbd3	0.038570236
81	0x3c2ad1f9	0.010426038
82	0x3d11d816	0.035606466
83	0x3d5c780c	0.053825423
84	0xbd168f86	-0.03675797
85	0x3cefc54f	0.029268889
86	0xbc35eba2	-0.0111035425
87	0x3c8f35e9	0.017481761
88	0xbc91f6b4	-0.017817833
89	0xbd22d3f8	-0.03975293
90	0x3d60ee5d	0.05491482
91	0x3caf7ae6	0.021420907
92	0x3c5584ea	0.013032177
93	0x3d1b236e	0.037875585
94	0x3ccb7f5a	0.024841
95	0x3d800757	0.062514
96	0x3d78f728	0.06078258
97	0x3b810871	0.003937774
98	0xbd2da38f	-0.04239231
99	0xbd190a02	-0.03736306
100	0xbbaaf3da	-0.0052170577
101	0xbba0a2ce	-0.0049022203
102	0xbca6309a	-0.020286847
103	0xbd8fb8d0	-0.07017672
104	0xbd187817	-0.0372239
105	0xbcd5291e	-0.026020583
106	0xbd3d3abe	-0.0461986
107	0x3d4d2292	0.050081797
108	0x3cb59ff9	0.022171007
109	0x3d5258b6	0.051354133
110	0xbc4326e8	-0.011911131
111	0xbd0dc13f	-0.034608122
112	0xbd31f8f8	-0.043450326
113	0xbd599a03	-0.053125393
114	0xbd220931	-0.039559547
115	0x3d46e8f9	0.048562024
116	0xbd3d4ed3	-0.04621775
117	0xbd1dde92	-0.038542338
118	0x3cc32a45	0.023823867
119	0x3cd3335c	0.025781326
120	0xbd01f731	-0.03172988
121	0x3c15ee04	0.009150986
122	0x3d352fd9	0.044235084
123	0x3a87cde6	0.0010361045
124	0xbc0bdb7c	-0.008536216
125	0x3d967664	0.073468
126	0xbccb7a35	-0.024838546
127	0xbd386efa	-0.04502771
